7767517
1092 1875
Input                    data                      0 1 data
Reorg                    pixelunshuffle_0         1 1 data 1 0=2 1=0
Convolution              conv_1                   1 1 1 2 0=64 1=3 11=3 12=1 13=1 14=1 2=1 3=1 4=1 5=1 6=6912
Split                    splitncnn_0              1 8 2 3 4 5 6 7 8 9 10
Convolution              convrelu_0               1 1 10 11 0=32 1=3 -23310=1,2.000000e-01 11=3 12=1 13=1 14=1 2=1 3=1 4=1 5=1 6=18432 9=2
Split                    splitncnn_1              1 4 11 12 13 14 15
Concat                   cat_0                    2 1 3 12 16 0=0
Convolution              convrelu_1               1 1 16 17 0=32 1=3 -23310=1,2.000000e-01 11=3 12=1 13=1 14=1 2=1 3=1 4=1 5=1 6=27648 9=2
Split                    splitncnn_2              1 3 17 18 19 20
Concat                   cat_1                    3 1 4 13 18 21 0=0
Convolution              convrelu_2               1 1 21 22 0=32 1=3 -23310=1,2.000000e-01 11=3 12=1 13=1 14=1 2=1 3=1 4=1 5=1 6=36864 9=2
Split                    splitncnn_3              1 2 22 23 24
Concat                   cat_2                    4 1 5 14 19 23 25 0=0
Convolution              convrelu_3               1 1 25 26 0=32 1=3 -23310=1,2.000000e-01 11=3 12=1 13=1 14=1 2=1 3=1 4=1 5=1 6=46080 9=2
Concat                   cat_3                    5 1 6 15 20 24 26 27 0=0
Convolution              conv_6                   1 1 27 28 0=64 1=3 11=3 12=1 13=1 14=1 2=1 3=1 4=1 5=1 6=110592
BinaryOp                 mul_0                    1 1 28 29 0=2 1=1 2=2.000000e-01
BinaryOp                 add_1                    2 1 29 7 30 0=0
Split                    splitncnn_4              1 6 30 31 32 33 34 35 36
Convolution              convrelu_4               1 1 36 37 0=32 1=3 -23310=1,2.000000e-01 11=3 12=1 13=1 14=1 2=1 3=1 4=1 5=1 6=18432 9=2
Split                    splitncnn_5              1 4 37 38 39 40 41
Concat                   cat_4                    2 1 31 38 42 0=0
Convolution              convrelu_5               1 1 42 43 0=32 1=3 -23310=1,2.000000e-01 11=3 12=1 13=1 14=1 2=1 3=1 4=1 5=1 6=27648 9=2
Split                    splitncnn_6              1 3 43 44 45 46
Concat                   cat_5                    3 1 32 39 44 47 0=0
Convolution              convrelu_6               1 1 47 48 0=32 1=3 -23310=1,2.000000e-01 11=3 12=1 13=1 14=1 2=1 3=1 4=1 5=1 6=36864 9=2
Split                    splitncnn_7              1 2 48 49 50
Concat                   cat_6                    4 1 33 40 45 49 51 0=0
Convolution              convrelu_7               1 1 51 52 0=32 1=3 -23310=1,2.000000e-01 11=3 12=1 13=1 14=1 2=1 3=1 4=1 5=1 6=46080 9=2
Concat                   cat_7                    5 1 34 41 46 50 52 53 0=0
Convolution              conv_11                  1 1 53 54 0=64 1=3 11=3 12=1 13=1 14=1 2=1 3=1 4=1 5=1 6=110592
BinaryOp                 mul_2                    1 1 54 55 0=2 1=1 2=2.000000e-01
BinaryOp                 add_3                    2 1 55 35 56 0=0
Split                    splitncnn_8              1 6 56 57 58 59 60 61 62
Convolution              convrelu_8               1 1 62 63 0=32 1=3 -23310=1,2.000000e-01 11=3 12=1 13=1 14=1 2=1 3=1 4=1 5=1 6=18432 9=2
Split                    splitncnn_9              1 4 63 64 65 66 67
Concat                   cat_8                    2 1 57 64 68 0=0
Convolution              convrelu_9               1 1 68 69 0=32 1=3 -23310=1,2.000000e-01 11=3 12=1 13=1 14=1 2=1 3=1 4=1 5=1 6=27648 9=2
Split                    splitncnn_10             1 3 69 70 71 72
Concat                   cat_9                    3 1 58 65 70 73 0=0
Convolution              convrelu_10              1 1 73 74 0=32 1=3 -23310=1,2.000000e-01 11=3 12=1 13=1 14=1 2=1 3=1 4=1 5=1 6=36864 9=2
Split                    splitncnn_11             1 2 74 75 76
Concat                   cat_10                   4 1 59 66 71 75 77 0=0
Convolution              convrelu_11              1 1 77 78 0=32 1=3 -23310=1,2.000000e-01 11=3 12=1 13=1 14=1 2=1 3=1 4=1 5=1 6=46080 9=2
Concat                   cat_11                   5 1 60 67 72 76 78 79 0=0
Convolution              conv_16                  1 1 79 80 0=64 1=3 11=3 12=1 13=1 14=1 2=1 3=1 4=1 5=1 6=110592
BinaryOp                 mul_4                    1 1 80 81 0=2 1=1 2=2.000000e-01
BinaryOp                 add_5                    2 1 81 61 82 0=0
BinaryOp                 mul_6                    1 1 82 83 0=2 1=1 2=2.000000e-01
BinaryOp                 add_7                    2 1 83 8 84 0=0
Split                    splitncnn_12             1 7 84 85 86 87 88 89 90 91
Convolution              convrelu_12              1 1 91 92 0=32 1=3 -23310=1,2.000000e-01 11=3 12=1 13=1 14=1 2=1 3=1 4=1 5=1 6=18432 9=2
Split                    splitncnn_13             1 4 92 93 94 95 96
Concat                   cat_12                   2 1 85 93 97 0=0
Convolution              convrelu_13              1 1 97 98 0=32 1=3 -23310=1,2.000000e-01 11=3 12=1 13=1 14=1 2=1 3=1 4=1 5=1 6=27648 9=2
Split                    splitncnn_14             1 3 98 99 100 101
Concat                   cat_13                   3 1 86 94 99 102 0=0
Convolution              convrelu_14              1 1 102 103 0=32 1=3 -23310=1,2.000000e-01 11=3 12=1 13=1 14=1 2=1 3=1 4=1 5=1 6=36864 9=2
Split                    splitncnn_15             1 2 103 104 105
Concat                   cat_14                   4 1 87 95 100 104 106 0=0
Convolution              convrelu_15              1 1 106 107 0=32 1=3 -23310=1,2.000000e-01 11=3 12=1 13=1 14=1 2=1 3=1 4=1 5=1 6=46080 9=2
Concat                   cat_15                   5 1 88 96 101 105 107 108 0=0
Convolution              conv_21                  1 1 108 109 0=64 1=3 11=3 12=1 13=1 14=1 2=1 3=1 4=1 5=1 6=110592
BinaryOp                 mul_8                    1 1 109 110 0=2 1=1 2=2.000000e-01
BinaryOp                 add_9                    2 1 110 89 111 0=0
Split                    splitncnn_16             1 6 111 112 113 114 115 116 117
Convolution              convrelu_16              1 1 117 118 0=32 1=3 -23310=1,2.000000e-01 11=3 12=1 13=1 14=1 2=1 3=1 4=1 5=1 6=18432 9=2
Split                    splitncnn_17             1 4 118 119 120 121 122
Concat                   cat_16                   2 1 112 119 123 0=0
Convolution              convrelu_17              1 1 123 124 0=32 1=3 -23310=1,2.000000e-01 11=3 12=1 13=1 14=1 2=1 3=1 4=1 5=1 6=27648 9=2
Split                    splitncnn_18             1 3 124 125 126 127
Concat                   cat_17                   3 1 113 120 125 128 0=0
Convolution              convrelu_18              1 1 128 129 0=32 1=3 -23310=1,2.000000e-01 11=3 12=1 13=1 14=1 2=1 3=1 4=1 5=1 6=36864 9=2
Split                    splitncnn_19             1 2 129 130 131
Concat                   cat_18                   4 1 114 121 126 130 132 0=0
Convolution              convrelu_19              1 1 132 133 0=32 1=3 -23310=1,2.000000e-01 11=3 12=1 13=1 14=1 2=1 3=1 4=1 5=1 6=46080 9=2
Concat                   cat_19                   5 1 115 122 127 131 133 134 0=0
Convolution              conv_26                  1 1 134 135 0=64 1=3 11=3 12=1 13=1 14=1 2=1 3=1 4=1 5=1 6=110592
BinaryOp                 mul_10                   1 1 135 136 0=2 1=1 2=2.000000e-01
BinaryOp                 add_11                   2 1 136 116 137 0=0
Split                    splitncnn_20             1 6 137 138 139 140 141 142 143
Convolution              convrelu_20              1 1 143 144 0=32 1=3 -23310=1,2.000000e-01 11=3 12=1 13=1 14=1 2=1 3=1 4=1 5=1 6=18432 9=2
Split                    splitncnn_21             1 4 144 145 146 147 148
Concat                   cat_20                   2 1 138 145 149 0=0
Convolution              convrelu_21              1 1 149 150 0=32 1=3 -23310=1,2.000000e-01 11=3 12=1 13=1 14=1 2=1 3=1 4=1 5=1 6=27648 9=2
Split                    splitncnn_22             1 3 150 151 152 153
Concat                   cat_21                   3 1 139 146 151 154 0=0
Convolution              convrelu_22              1 1 154 155 0=32 1=3 -23310=1,2.000000e-01 11=3 12=1 13=1 14=1 2=1 3=1 4=1 5=1 6=36864 9=2
Split                    splitncnn_23             1 2 155 156 157
Concat                   cat_22                   4 1 140 147 152 156 158 0=0
Convolution              convrelu_23              1 1 158 159 0=32 1=3 -23310=1,2.000000e-01 11=3 12=1 13=1 14=1 2=1 3=1 4=1 5=1 6=46080 9=2
Concat                   cat_23                   5 1 141 148 153 157 159 160 0=0
Convolution              conv_31                  1 1 160 161 0=64 1=3 11=3 12=1 13=1 14=1 2=1 3=1 4=1 5=1 6=110592
BinaryOp                 mul_12                   1 1 161 162 0=2 1=1 2=2.000000e-01
BinaryOp                 add_13                   2 1 162 142 163 0=0
BinaryOp                 mul_14                   1 1 163 164 0=2 1=1 2=2.000000e-01
BinaryOp                 add_15                   2 1 164 90 165 0=0
Split                    splitncnn_24             1 7 165 166 167 168 169 170 171 172
Convolution              convrelu_24              1 1 172 173 0=32 1=3 -23310=1,2.000000e-01 11=3 12=1 13=1 14=1 2=1 3=1 4=1 5=1 6=18432 9=2
Split                    splitncnn_25             1 4 173 174 175 176 177
Concat                   cat_24                   2 1 166 174 178 0=0
Convolution              convrelu_25              1 1 178 179 0=32 1=3 -23310=1,2.000000e-01 11=3 12=1 13=1 14=1 2=1 3=1 4=1 5=1 6=27648 9=2
Split                    splitncnn_26             1 3 179 180 181 182
Concat                   cat_25                   3 1 167 175 180 183 0=0
Convolution              convrelu_26              1 1 183 184 0=32 1=3 -23310=1,2.000000e-01 11=3 12=1 13=1 14=1 2=1 3=1 4=1 5=1 6=36864 9=2
Split                    splitncnn_27             1 2 184 185 186
Concat                   cat_26                   4 1 168 176 181 185 187 0=0
Convolution              convrelu_27              1 1 187 188 0=32 1=3 -23310=1,2.000000e-01 11=3 12=1 13=1 14=1 2=1 3=1 4=1 5=1 6=46080 9=2
Concat                   cat_27                   5 1 169 177 182 186 188 189 0=0
Convolution              conv_36                  1 1 189 190 0=64 1=3 11=3 12=1 13=1 14=1 2=1 3=1 4=1 5=1 6=110592
BinaryOp                 mul_16                   1 1 190 191 0=2 1=1 2=2.000000e-01
BinaryOp                 add_17                   2 1 191 170 192 0=0
Split                    splitncnn_28             1 6 192 193 194 195 196 197 198
Convolution              convrelu_28              1 1 198 199 0=32 1=3 -23310=1,2.000000e-01 11=3 12=1 13=1 14=1 2=1 3=1 4=1 5=1 6=18432 9=2
Split                    splitncnn_29             1 4 199 200 201 202 203
Concat                   cat_28                   2 1 193 200 204 0=0
Convolution              convrelu_29              1 1 204 205 0=32 1=3 -23310=1,2.000000e-01 11=3 12=1 13=1 14=1 2=1 3=1 4=1 5=1 6=27648 9=2
Split                    splitncnn_30             1 3 205 206 207 208
Concat                   cat_29                   3 1 194 201 206 209 0=0
Convolution              convrelu_30              1 1 209 210 0=32 1=3 -23310=1,2.000000e-01 11=3 12=1 13=1 14=1 2=1 3=1 4=1 5=1 6=36864 9=2
Split                    splitncnn_31             1 2 210 211 212
Concat                   cat_30                   4 1 195 202 207 211 213 0=0
Convolution              convrelu_31              1 1 213 214 0=32 1=3 -23310=1,2.000000e-01 11=3 12=1 13=1 14=1 2=1 3=1 4=1 5=1 6=46080 9=2
Concat                   cat_31                   5 1 196 203 208 212 214 215 0=0
Convolution              conv_41                  1 1 215 216 0=64 1=3 11=3 12=1 13=1 14=1 2=1 3=1 4=1 5=1 6=110592
BinaryOp                 mul_18                   1 1 216 217 0=2 1=1 2=2.000000e-01
BinaryOp                 add_19                   2 1 217 197 218 0=0
Split                    splitncnn_32             1 6 218 219 220 221 222 223 224
Convolution              convrelu_32              1 1 224 225 0=32 1=3 -23310=1,2.000000e-01 11=3 12=1 13=1 14=1 2=1 3=1 4=1 5=1 6=18432 9=2
Split                    splitncnn_33             1 4 225 226 227 228 229
Concat                   cat_32                   2 1 219 226 230 0=0
Convolution              convrelu_33              1 1 230 231 0=32 1=3 -23310=1,2.000000e-01 11=3 12=1 13=1 14=1 2=1 3=1 4=1 5=1 6=27648 9=2
Split                    splitncnn_34             1 3 231 232 233 234
Concat                   cat_33                   3 1 220 227 232 235 0=0
Convolution              convrelu_34              1 1 235 236 0=32 1=3 -23310=1,2.000000e-01 11=3 12=1 13=1 14=1 2=1 3=1 4=1 5=1 6=36864 9=2
Split                    splitncnn_35             1 2 236 237 238
Concat                   cat_34                   4 1 221 228 233 237 239 0=0
Convolution              convrelu_35              1 1 239 240 0=32 1=3 -23310=1,2.000000e-01 11=3 12=1 13=1 14=1 2=1 3=1 4=1 5=1 6=46080 9=2
Concat                   cat_35                   5 1 222 229 234 238 240 241 0=0
Convolution              conv_46                  1 1 241 242 0=64 1=3 11=3 12=1 13=1 14=1 2=1 3=1 4=1 5=1 6=110592
BinaryOp                 mul_20                   1 1 242 243 0=2 1=1 2=2.000000e-01
BinaryOp                 add_21                   2 1 243 223 244 0=0
BinaryOp                 mul_22                   1 1 244 245 0=2 1=1 2=2.000000e-01
BinaryOp                 add_23                   2 1 245 171 246 0=0
Split                    splitncnn_36             1 7 246 247 248 249 250 251 252 253
Convolution              convrelu_36              1 1 253 254 0=32 1=3 -23310=1,2.000000e-01 11=3 12=1 13=1 14=1 2=1 3=1 4=1 5=1 6=18432 9=2
Split                    splitncnn_37             1 4 254 255 256 257 258
Concat                   cat_36                   2 1 247 255 259 0=0
Convolution              convrelu_37              1 1 259 260 0=32 1=3 -23310=1,2.000000e-01 11=3 12=1 13=1 14=1 2=1 3=1 4=1 5=1 6=27648 9=2
Split                    splitncnn_38             1 3 260 261 262 263
Concat                   cat_37                   3 1 248 256 261 264 0=0
Convolution              convrelu_38              1 1 264 265 0=32 1=3 -23310=1,2.000000e-01 11=3 12=1 13=1 14=1 2=1 3=1 4=1 5=1 6=36864 9=2
Split                    splitncnn_39             1 2 265 266 267
Concat                   cat_38                   4 1 249 257 262 266 268 0=0
Convolution              convrelu_39              1 1 268 269 0=32 1=3 -23310=1,2.000000e-01 11=3 12=1 13=1 14=1 2=1 3=1 4=1 5=1 6=46080 9=2
Concat                   cat_39                   5 1 250 258 263 267 269 270 0=0
Convolution              conv_51                  1 1 270 271 0=64 1=3 11=3 12=1 13=1 14=1 2=1 3=1 4=1 5=1 6=110592
BinaryOp                 mul_24                   1 1 271 272 0=2 1=1 2=2.000000e-01
BinaryOp                 add_25                   2 1 272 251 273 0=0
Split                    splitncnn_40             1 6 273 274 275 276 277 278 279
Convolution              convrelu_40              1 1 279 280 0=32 1=3 -23310=1,2.000000e-01 11=3 12=1 13=1 14=1 2=1 3=1 4=1 5=1 6=18432 9=2
Split                    splitncnn_41             1 4 280 281 282 283 284
Concat                   cat_40                   2 1 274 281 285 0=0
Convolution              convrelu_41              1 1 285 286 0=32 1=3 -23310=1,2.000000e-01 11=3 12=1 13=1 14=1 2=1 3=1 4=1 5=1 6=27648 9=2
Split                    splitncnn_42             1 3 286 287 288 289
Concat                   cat_41                   3 1 275 282 287 290 0=0
Convolution              convrelu_42              1 1 290 291 0=32 1=3 -23310=1,2.000000e-01 11=3 12=1 13=1 14=1 2=1 3=1 4=1 5=1 6=36864 9=2
Split                    splitncnn_43             1 2 291 292 293
Concat                   cat_42                   4 1 276 283 288 292 294 0=0
Convolution              convrelu_43              1 1 294 295 0=32 1=3 -23310=1,2.000000e-01 11=3 12=1 13=1 14=1 2=1 3=1 4=1 5=1 6=46080 9=2
Concat                   cat_43                   5 1 277 284 289 293 295 296 0=0
Convolution              conv_56                  1 1 296 297 0=64 1=3 11=3 12=1 13=1 14=1 2=1 3=1 4=1 5=1 6=110592
BinaryOp                 mul_26                   1 1 297 298 0=2 1=1 2=2.000000e-01
BinaryOp                 add_27                   2 1 298 278 299 0=0
Split                    splitncnn_44             1 6 299 300 301 302 303 304 305
Convolution              convrelu_44              1 1 305 306 0=32 1=3 -23310=1,2.000000e-01 11=3 12=1 13=1 14=1 2=1 3=1 4=1 5=1 6=18432 9=2
Split                    splitncnn_45             1 4 306 307 308 309 310
Concat                   cat_44                   2 1 300 307 311 0=0
Convolution              convrelu_45              1 1 311 312 0=32 1=3 -23310=1,2.000000e-01 11=3 12=1 13=1 14=1 2=1 3=1 4=1 5=1 6=27648 9=2
Split                    splitncnn_46             1 3 312 313 314 315
Concat                   cat_45                   3 1 301 308 313 316 0=0
Convolution              convrelu_46              1 1 316 317 0=32 1=3 -23310=1,2.000000e-01 11=3 12=1 13=1 14=1 2=1 3=1 4=1 5=1 6=36864 9=2
Split                    splitncnn_47             1 2 317 318 319
Concat                   cat_46                   4 1 302 309 314 318 320 0=0
Convolution              convrelu_47              1 1 320 321 0=32 1=3 -23310=1,2.000000e-01 11=3 12=1 13=1 14=1 2=1 3=1 4=1 5=1 6=46080 9=2
Concat                   cat_47                   5 1 303 310 315 319 321 322 0=0
Convolution              conv_61                  1 1 322 323 0=64 1=3 11=3 12=1 13=1 14=1 2=1 3=1 4=1 5=1 6=110592
BinaryOp                 mul_28                   1 1 323 324 0=2 1=1 2=2.000000e-01
BinaryOp                 add_29                   2 1 324 304 325 0=0
BinaryOp                 mul_30                   1 1 325 326 0=2 1=1 2=2.000000e-01
BinaryOp                 add_31                   2 1 326 252 327 0=0
Split                    splitncnn_48             1 7 327 328 329 330 331 332 333 334
Convolution              convrelu_48              1 1 334 335 0=32 1=3 -23310=1,2.000000e-01 11=3 12=1 13=1 14=1 2=1 3=1 4=1 5=1 6=18432 9=2
Split                    splitncnn_49             1 4 335 336 337 338 339
Concat                   cat_48                   2 1 328 336 340 0=0
Convolution              convrelu_49              1 1 340 341 0=32 1=3 -23310=1,2.000000e-01 11=3 12=1 13=1 14=1 2=1 3=1 4=1 5=1 6=27648 9=2
Split                    splitncnn_50             1 3 341 342 343 344
Concat                   cat_49                   3 1 329 337 342 345 0=0
Convolution              convrelu_50              1 1 345 346 0=32 1=3 -23310=1,2.000000e-01 11=3 12=1 13=1 14=1 2=1 3=1 4=1 5=1 6=36864 9=2
Split                    splitncnn_51             1 2 346 347 348
Concat                   cat_50                   4 1 330 338 343 347 349 0=0
Convolution              convrelu_51              1 1 349 350 0=32 1=3 -23310=1,2.000000e-01 11=3 12=1 13=1 14=1 2=1 3=1 4=1 5=1 6=46080 9=2
Concat                   cat_51                   5 1 331 339 344 348 350 351 0=0
Convolution              conv_66                  1 1 351 352 0=64 1=3 11=3 12=1 13=1 14=1 2=1 3=1 4=1 5=1 6=110592
BinaryOp                 mul_32                   1 1 352 353 0=2 1=1 2=2.000000e-01
BinaryOp                 add_33                   2 1 353 332 354 0=0
Split                    splitncnn_52             1 6 354 355 356 357 358 359 360
Convolution              convrelu_52              1 1 360 361 0=32 1=3 -23310=1,2.000000e-01 11=3 12=1 13=1 14=1 2=1 3=1 4=1 5=1 6=18432 9=2
Split                    splitncnn_53             1 4 361 362 363 364 365
Concat                   cat_52                   2 1 355 362 366 0=0
Convolution              convrelu_53              1 1 366 367 0=32 1=3 -23310=1,2.000000e-01 11=3 12=1 13=1 14=1 2=1 3=1 4=1 5=1 6=27648 9=2
Split                    splitncnn_54             1 3 367 368 369 370
Concat                   cat_53                   3 1 356 363 368 371 0=0
Convolution              convrelu_54              1 1 371 372 0=32 1=3 -23310=1,2.000000e-01 11=3 12=1 13=1 14=1 2=1 3=1 4=1 5=1 6=36864 9=2
Split                    splitncnn_55             1 2 372 373 374
Concat                   cat_54                   4 1 357 364 369 373 375 0=0
Convolution              convrelu_55              1 1 375 376 0=32 1=3 -23310=1,2.000000e-01 11=3 12=1 13=1 14=1 2=1 3=1 4=1 5=1 6=46080 9=2
Concat                   cat_55                   5 1 358 365 370 374 376 377 0=0
Convolution              conv_71                  1 1 377 378 0=64 1=3 11=3 12=1 13=1 14=1 2=1 3=1 4=1 5=1 6=110592
BinaryOp                 mul_34                   1 1 378 379 0=2 1=1 2=2.000000e-01
BinaryOp                 add_35                   2 1 379 359 380 0=0
Split                    splitncnn_56             1 6 380 381 382 383 384 385 386
Convolution              convrelu_56              1 1 386 387 0=32 1=3 -23310=1,2.000000e-01 11=3 12=1 13=1 14=1 2=1 3=1 4=1 5=1 6=18432 9=2
Split                    splitncnn_57             1 4 387 388 389 390 391
Concat                   cat_56                   2 1 381 388 392 0=0
Convolution              convrelu_57              1 1 392 393 0=32 1=3 -23310=1,2.000000e-01 11=3 12=1 13=1 14=1 2=1 3=1 4=1 5=1 6=27648 9=2
Split                    splitncnn_58             1 3 393 394 395 396
Concat                   cat_57                   3 1 382 389 394 397 0=0
Convolution              convrelu_58              1 1 397 398 0=32 1=3 -23310=1,2.000000e-01 11=3 12=1 13=1 14=1 2=1 3=1 4=1 5=1 6=36864 9=2
Split                    splitncnn_59             1 2 398 399 400
Concat                   cat_58                   4 1 383 390 395 399 401 0=0
Convolution              convrelu_59              1 1 401 402 0=32 1=3 -23310=1,2.000000e-01 11=3 12=1 13=1 14=1 2=1 3=1 4=1 5=1 6=46080 9=2
Concat                   cat_59                   5 1 384 391 396 400 402 403 0=0
Convolution              conv_76                  1 1 403 404 0=64 1=3 11=3 12=1 13=1 14=1 2=1 3=1 4=1 5=1 6=110592
BinaryOp                 mul_36                   1 1 404 405 0=2 1=1 2=2.000000e-01
BinaryOp                 add_37                   2 1 405 385 406 0=0
BinaryOp                 mul_38                   1 1 406 407 0=2 1=1 2=2.000000e-01
BinaryOp                 add_39                   2 1 407 333 408 0=0
Split                    splitncnn_60             1 7 408 409 410 411 412 413 414 415
Convolution              convrelu_60              1 1 415 416 0=32 1=3 -23310=1,2.000000e-01 11=3 12=1 13=1 14=1 2=1 3=1 4=1 5=1 6=18432 9=2
Split                    splitncnn_61             1 4 416 417 418 419 420
Concat                   cat_60                   2 1 409 417 421 0=0
Convolution              convrelu_61              1 1 421 422 0=32 1=3 -23310=1,2.000000e-01 11=3 12=1 13=1 14=1 2=1 3=1 4=1 5=1 6=27648 9=2
Split                    splitncnn_62             1 3 422 423 424 425
Concat                   cat_61                   3 1 410 418 423 426 0=0
Convolution              convrelu_62              1 1 426 427 0=32 1=3 -23310=1,2.000000e-01 11=3 12=1 13=1 14=1 2=1 3=1 4=1 5=1 6=36864 9=2
Split                    splitncnn_63             1 2 427 428 429
Concat                   cat_62                   4 1 411 419 424 428 430 0=0
Convolution              convrelu_63              1 1 430 431 0=32 1=3 -23310=1,2.000000e-01 11=3 12=1 13=1 14=1 2=1 3=1 4=1 5=1 6=46080 9=2
Concat                   cat_63                   5 1 412 420 425 429 431 432 0=0
Convolution              conv_81                  1 1 432 433 0=64 1=3 11=3 12=1 13=1 14=1 2=1 3=1 4=1 5=1 6=110592
BinaryOp                 mul_40                   1 1 433 434 0=2 1=1 2=2.000000e-01
BinaryOp                 add_41                   2 1 434 413 435 0=0
Split                    splitncnn_64             1 6 435 436 437 438 439 440 441
Convolution              convrelu_64              1 1 441 442 0=32 1=3 -23310=1,2.000000e-01 11=3 12=1 13=1 14=1 2=1 3=1 4=1 5=1 6=18432 9=2
Split                    splitncnn_65             1 4 442 443 444 445 446
Concat                   cat_64                   2 1 436 443 447 0=0
Convolution              convrelu_65              1 1 447 448 0=32 1=3 -23310=1,2.000000e-01 11=3 12=1 13=1 14=1 2=1 3=1 4=1 5=1 6=27648 9=2
Split                    splitncnn_66             1 3 448 449 450 451
Concat                   cat_65                   3 1 437 444 449 452 0=0
Convolution              convrelu_66              1 1 452 453 0=32 1=3 -23310=1,2.000000e-01 11=3 12=1 13=1 14=1 2=1 3=1 4=1 5=1 6=36864 9=2
Split                    splitncnn_67             1 2 453 454 455
Concat                   cat_66                   4 1 438 445 450 454 456 0=0
Convolution              convrelu_67              1 1 456 457 0=32 1=3 -23310=1,2.000000e-01 11=3 12=1 13=1 14=1 2=1 3=1 4=1 5=1 6=46080 9=2
Concat                   cat_67                   5 1 439 446 451 455 457 458 0=0
Convolution              conv_86                  1 1 458 459 0=64 1=3 11=3 12=1 13=1 14=1 2=1 3=1 4=1 5=1 6=110592
BinaryOp                 mul_42                   1 1 459 460 0=2 1=1 2=2.000000e-01
BinaryOp                 add_43                   2 1 460 440 461 0=0
Split                    splitncnn_68             1 6 461 462 463 464 465 466 467
Convolution              convrelu_68              1 1 467 468 0=32 1=3 -23310=1,2.000000e-01 11=3 12=1 13=1 14=1 2=1 3=1 4=1 5=1 6=18432 9=2
Split                    splitncnn_69             1 4 468 469 470 471 472
Concat                   cat_68                   2 1 462 469 473 0=0
Convolution              convrelu_69              1 1 473 474 0=32 1=3 -23310=1,2.000000e-01 11=3 12=1 13=1 14=1 2=1 3=1 4=1 5=1 6=27648 9=2
Split                    splitncnn_70             1 3 474 475 476 477
Concat                   cat_69                   3 1 463 470 475 478 0=0
Convolution              convrelu_70              1 1 478 479 0=32 1=3 -23310=1,2.000000e-01 11=3 12=1 13=1 14=1 2=1 3=1 4=1 5=1 6=36864 9=2
Split                    splitncnn_71             1 2 479 480 481
Concat                   cat_70                   4 1 464 471 476 480 482 0=0
Convolution              convrelu_71              1 1 482 483 0=32 1=3 -23310=1,2.000000e-01 11=3 12=1 13=1 14=1 2=1 3=1 4=1 5=1 6=46080 9=2
Concat                   cat_71                   5 1 465 472 477 481 483 484 0=0
Convolution              conv_91                  1 1 484 485 0=64 1=3 11=3 12=1 13=1 14=1 2=1 3=1 4=1 5=1 6=110592
BinaryOp                 mul_44                   1 1 485 486 0=2 1=1 2=2.000000e-01
BinaryOp                 add_45                   2 1 486 466 487 0=0
BinaryOp                 mul_46                   1 1 487 488 0=2 1=1 2=2.000000e-01
BinaryOp                 add_47                   2 1 488 414 489 0=0
Split                    splitncnn_72             1 7 489 490 491 492 493 494 495 496
Convolution              convrelu_72              1 1 496 497 0=32 1=3 -23310=1,2.000000e-01 11=3 12=1 13=1 14=1 2=1 3=1 4=1 5=1 6=18432 9=2
Split                    splitncnn_73             1 4 497 498 499 500 501
Concat                   cat_72                   2 1 490 498 502 0=0
Convolution              convrelu_73              1 1 502 503 0=32 1=3 -23310=1,2.000000e-01 11=3 12=1 13=1 14=1 2=1 3=1 4=1 5=1 6=27648 9=2
Split                    splitncnn_74             1 3 503 504 505 506
Concat                   cat_73                   3 1 491 499 504 507 0=0
Convolution              convrelu_74              1 1 507 508 0=32 1=3 -23310=1,2.000000e-01 11=3 12=1 13=1 14=1 2=1 3=1 4=1 5=1 6=36864 9=2
Split                    splitncnn_75             1 2 508 509 510
Concat                   cat_74                   4 1 492 500 505 509 511 0=0
Convolution              convrelu_75              1 1 511 512 0=32 1=3 -23310=1,2.000000e-01 11=3 12=1 13=1 14=1 2=1 3=1 4=1 5=1 6=46080 9=2
Concat                   cat_75                   5 1 493 501 506 510 512 513 0=0
Convolution              conv_96                  1 1 513 514 0=64 1=3 11=3 12=1 13=1 14=1 2=1 3=1 4=1 5=1 6=110592
BinaryOp                 mul_48                   1 1 514 515 0=2 1=1 2=2.000000e-01
BinaryOp                 add_49                   2 1 515 494 516 0=0
Split                    splitncnn_76             1 6 516 517 518 519 520 521 522
Convolution              convrelu_76              1 1 522 523 0=32 1=3 -23310=1,2.000000e-01 11=3 12=1 13=1 14=1 2=1 3=1 4=1 5=1 6=18432 9=2
Split                    splitncnn_77             1 4 523 524 525 526 527
Concat                   cat_76                   2 1 517 524 528 0=0
Convolution              convrelu_77              1 1 528 529 0=32 1=3 -23310=1,2.000000e-01 11=3 12=1 13=1 14=1 2=1 3=1 4=1 5=1 6=27648 9=2
Split                    splitncnn_78             1 3 529 530 531 532
Concat                   cat_77                   3 1 518 525 530 533 0=0
Convolution              convrelu_78              1 1 533 534 0=32 1=3 -23310=1,2.000000e-01 11=3 12=1 13=1 14=1 2=1 3=1 4=1 5=1 6=36864 9=2
Split                    splitncnn_79             1 2 534 535 536
Concat                   cat_78                   4 1 519 526 531 535 537 0=0
Convolution              convrelu_79              1 1 537 538 0=32 1=3 -23310=1,2.000000e-01 11=3 12=1 13=1 14=1 2=1 3=1 4=1 5=1 6=46080 9=2
Concat                   cat_79                   5 1 520 527 532 536 538 539 0=0
Convolution              conv_101                 1 1 539 540 0=64 1=3 11=3 12=1 13=1 14=1 2=1 3=1 4=1 5=1 6=110592
BinaryOp                 mul_50                   1 1 540 541 0=2 1=1 2=2.000000e-01
BinaryOp                 add_51                   2 1 541 521 542 0=0
Split                    splitncnn_80             1 6 542 543 544 545 546 547 548
Convolution              convrelu_80              1 1 548 549 0=32 1=3 -23310=1,2.000000e-01 11=3 12=1 13=1 14=1 2=1 3=1 4=1 5=1 6=18432 9=2
Split                    splitncnn_81             1 4 549 550 551 552 553
Concat                   cat_80                   2 1 543 550 554 0=0
Convolution              convrelu_81              1 1 554 555 0=32 1=3 -23310=1,2.000000e-01 11=3 12=1 13=1 14=1 2=1 3=1 4=1 5=1 6=27648 9=2
Split                    splitncnn_82             1 3 555 556 557 558
Concat                   cat_81                   3 1 544 551 556 559 0=0
Convolution              convrelu_82              1 1 559 560 0=32 1=3 -23310=1,2.000000e-01 11=3 12=1 13=1 14=1 2=1 3=1 4=1 5=1 6=36864 9=2
Split                    splitncnn_83             1 2 560 561 562
Concat                   cat_82                   4 1 545 552 557 561 563 0=0
Convolution              convrelu_83              1 1 563 564 0=32 1=3 -23310=1,2.000000e-01 11=3 12=1 13=1 14=1 2=1 3=1 4=1 5=1 6=46080 9=2
Concat                   cat_83                   5 1 546 553 558 562 564 565 0=0
Convolution              conv_106                 1 1 565 566 0=64 1=3 11=3 12=1 13=1 14=1 2=1 3=1 4=1 5=1 6=110592
BinaryOp                 mul_52                   1 1 566 567 0=2 1=1 2=2.000000e-01
BinaryOp                 add_53                   2 1 567 547 568 0=0
BinaryOp                 mul_54                   1 1 568 569 0=2 1=1 2=2.000000e-01
BinaryOp                 add_55                   2 1 569 495 570 0=0
Split                    splitncnn_84             1 7 570 571 572 573 574 575 576 577
Convolution              convrelu_84              1 1 577 578 0=32 1=3 -23310=1,2.000000e-01 11=3 12=1 13=1 14=1 2=1 3=1 4=1 5=1 6=18432 9=2
Split                    splitncnn_85             1 4 578 579 580 581 582
Concat                   cat_84                   2 1 571 579 583 0=0
Convolution              convrelu_85              1 1 583 584 0=32 1=3 -23310=1,2.000000e-01 11=3 12=1 13=1 14=1 2=1 3=1 4=1 5=1 6=27648 9=2
Split                    splitncnn_86             1 3 584 585 586 587
Concat                   cat_85                   3 1 572 580 585 588 0=0
Convolution              convrelu_86              1 1 588 589 0=32 1=3 -23310=1,2.000000e-01 11=3 12=1 13=1 14=1 2=1 3=1 4=1 5=1 6=36864 9=2
Split                    splitncnn_87             1 2 589 590 591
Concat                   cat_86                   4 1 573 581 586 590 592 0=0
Convolution              convrelu_87              1 1 592 593 0=32 1=3 -23310=1,2.000000e-01 11=3 12=1 13=1 14=1 2=1 3=1 4=1 5=1 6=46080 9=2
Concat                   cat_87                   5 1 574 582 587 591 593 594 0=0
Convolution              conv_111                 1 1 594 595 0=64 1=3 11=3 12=1 13=1 14=1 2=1 3=1 4=1 5=1 6=110592
BinaryOp                 mul_56                   1 1 595 596 0=2 1=1 2=2.000000e-01
BinaryOp                 add_57                   2 1 596 575 597 0=0
Split                    splitncnn_88             1 6 597 598 599 600 601 602 603
Convolution              convrelu_88              1 1 603 604 0=32 1=3 -23310=1,2.000000e-01 11=3 12=1 13=1 14=1 2=1 3=1 4=1 5=1 6=18432 9=2
Split                    splitncnn_89             1 4 604 605 606 607 608
Concat                   cat_88                   2 1 598 605 609 0=0
Convolution              convrelu_89              1 1 609 610 0=32 1=3 -23310=1,2.000000e-01 11=3 12=1 13=1 14=1 2=1 3=1 4=1 5=1 6=27648 9=2
Split                    splitncnn_90             1 3 610 611 612 613
Concat                   cat_89                   3 1 599 606 611 614 0=0
Convolution              convrelu_90              1 1 614 615 0=32 1=3 -23310=1,2.000000e-01 11=3 12=1 13=1 14=1 2=1 3=1 4=1 5=1 6=36864 9=2
Split                    splitncnn_91             1 2 615 616 617
Concat                   cat_90                   4 1 600 607 612 616 618 0=0
Convolution              convrelu_91              1 1 618 619 0=32 1=3 -23310=1,2.000000e-01 11=3 12=1 13=1 14=1 2=1 3=1 4=1 5=1 6=46080 9=2
Concat                   cat_91                   5 1 601 608 613 617 619 620 0=0
Convolution              conv_116                 1 1 620 621 0=64 1=3 11=3 12=1 13=1 14=1 2=1 3=1 4=1 5=1 6=110592
BinaryOp                 mul_58                   1 1 621 622 0=2 1=1 2=2.000000e-01
BinaryOp                 add_59                   2 1 622 602 623 0=0
Split                    splitncnn_92             1 6 623 624 625 626 627 628 629
Convolution              convrelu_92              1 1 629 630 0=32 1=3 -23310=1,2.000000e-01 11=3 12=1 13=1 14=1 2=1 3=1 4=1 5=1 6=18432 9=2
Split                    splitncnn_93             1 4 630 631 632 633 634
Concat                   cat_92                   2 1 624 631 635 0=0
Convolution              convrelu_93              1 1 635 636 0=32 1=3 -23310=1,2.000000e-01 11=3 12=1 13=1 14=1 2=1 3=1 4=1 5=1 6=27648 9=2
Split                    splitncnn_94             1 3 636 637 638 639
Concat                   cat_93                   3 1 625 632 637 640 0=0
Convolution              convrelu_94              1 1 640 641 0=32 1=3 -23310=1,2.000000e-01 11=3 12=1 13=1 14=1 2=1 3=1 4=1 5=1 6=36864 9=2
Split                    splitncnn_95             1 2 641 642 643
Concat                   cat_94                   4 1 626 633 638 642 644 0=0
Convolution              convrelu_95              1 1 644 645 0=32 1=3 -23310=1,2.000000e-01 11=3 12=1 13=1 14=1 2=1 3=1 4=1 5=1 6=46080 9=2
Concat                   cat_95                   5 1 627 634 639 643 645 646 0=0
Convolution              conv_121                 1 1 646 647 0=64 1=3 11=3 12=1 13=1 14=1 2=1 3=1 4=1 5=1 6=110592
BinaryOp                 mul_60                   1 1 647 648 0=2 1=1 2=2.000000e-01
BinaryOp                 add_61                   2 1 648 628 649 0=0
BinaryOp                 mul_62                   1 1 649 650 0=2 1=1 2=2.000000e-01
BinaryOp                 add_63                   2 1 650 576 651 0=0
Split                    splitncnn_96             1 7 651 652 653 654 655 656 657 658
Convolution              convrelu_96              1 1 658 659 0=32 1=3 -23310=1,2.000000e-01 11=3 12=1 13=1 14=1 2=1 3=1 4=1 5=1 6=18432 9=2
Split                    splitncnn_97             1 4 659 660 661 662 663
Concat                   cat_96                   2 1 652 660 664 0=0
Convolution              convrelu_97              1 1 664 665 0=32 1=3 -23310=1,2.000000e-01 11=3 12=1 13=1 14=1 2=1 3=1 4=1 5=1 6=27648 9=2
Split                    splitncnn_98             1 3 665 666 667 668
Concat                   cat_97                   3 1 653 661 666 669 0=0
Convolution              convrelu_98              1 1 669 670 0=32 1=3 -23310=1,2.000000e-01 11=3 12=1 13=1 14=1 2=1 3=1 4=1 5=1 6=36864 9=2
Split                    splitncnn_99             1 2 670 671 672
Concat                   cat_98                   4 1 654 662 667 671 673 0=0
Convolution              convrelu_99              1 1 673 674 0=32 1=3 -23310=1,2.000000e-01 11=3 12=1 13=1 14=1 2=1 3=1 4=1 5=1 6=46080 9=2
Concat                   cat_99                   5 1 655 663 668 672 674 675 0=0
Convolution              conv_126                 1 1 675 676 0=64 1=3 11=3 12=1 13=1 14=1 2=1 3=1 4=1 5=1 6=110592
BinaryOp                 mul_64                   1 1 676 677 0=2 1=1 2=2.000000e-01
BinaryOp                 add_65                   2 1 677 656 678 0=0
Split                    splitncnn_100            1 6 678 679 680 681 682 683 684
Convolution              convrelu_100             1 1 684 685 0=32 1=3 -23310=1,2.000000e-01 11=3 12=1 13=1 14=1 2=1 3=1 4=1 5=1 6=18432 9=2
Split                    splitncnn_101            1 4 685 686 687 688 689
Concat                   cat_100                  2 1 679 686 690 0=0
Convolution              convrelu_101             1 1 690 691 0=32 1=3 -23310=1,2.000000e-01 11=3 12=1 13=1 14=1 2=1 3=1 4=1 5=1 6=27648 9=2
Split                    splitncnn_102            1 3 691 692 693 694
Concat                   cat_101                  3 1 680 687 692 695 0=0
Convolution              convrelu_102             1 1 695 696 0=32 1=3 -23310=1,2.000000e-01 11=3 12=1 13=1 14=1 2=1 3=1 4=1 5=1 6=36864 9=2
Split                    splitncnn_103            1 2 696 697 698
Concat                   cat_102                  4 1 681 688 693 697 699 0=0
Convolution              convrelu_103             1 1 699 700 0=32 1=3 -23310=1,2.000000e-01 11=3 12=1 13=1 14=1 2=1 3=1 4=1 5=1 6=46080 9=2
Concat                   cat_103                  5 1 682 689 694 698 700 701 0=0
Convolution              conv_131                 1 1 701 702 0=64 1=3 11=3 12=1 13=1 14=1 2=1 3=1 4=1 5=1 6=110592
BinaryOp                 mul_66                   1 1 702 703 0=2 1=1 2=2.000000e-01
BinaryOp                 add_67                   2 1 703 683 704 0=0
Split                    splitncnn_104            1 6 704 705 706 707 708 709 710
Convolution              convrelu_104             1 1 710 711 0=32 1=3 -23310=1,2.000000e-01 11=3 12=1 13=1 14=1 2=1 3=1 4=1 5=1 6=18432 9=2
Split                    splitncnn_105            1 4 711 712 713 714 715
Concat                   cat_104                  2 1 705 712 716 0=0
Convolution              convrelu_105             1 1 716 717 0=32 1=3 -23310=1,2.000000e-01 11=3 12=1 13=1 14=1 2=1 3=1 4=1 5=1 6=27648 9=2
Split                    splitncnn_106            1 3 717 718 719 720
Concat                   cat_105                  3 1 706 713 718 721 0=0
Convolution              convrelu_106             1 1 721 722 0=32 1=3 -23310=1,2.000000e-01 11=3 12=1 13=1 14=1 2=1 3=1 4=1 5=1 6=36864 9=2
Split                    splitncnn_107            1 2 722 723 724
Concat                   cat_106                  4 1 707 714 719 723 725 0=0
Convolution              convrelu_107             1 1 725 726 0=32 1=3 -23310=1,2.000000e-01 11=3 12=1 13=1 14=1 2=1 3=1 4=1 5=1 6=46080 9=2
Concat                   cat_107                  5 1 708 715 720 724 726 727 0=0
Convolution              conv_136                 1 1 727 728 0=64 1=3 11=3 12=1 13=1 14=1 2=1 3=1 4=1 5=1 6=110592
BinaryOp                 mul_68                   1 1 728 729 0=2 1=1 2=2.000000e-01
BinaryOp                 add_69                   2 1 729 709 730 0=0
BinaryOp                 mul_70                   1 1 730 731 0=2 1=1 2=2.000000e-01
BinaryOp                 add_71                   2 1 731 657 732 0=0
Split                    splitncnn_108            1 7 732 733 734 735 736 737 738 739
Convolution              convrelu_108             1 1 739 740 0=32 1=3 -23310=1,2.000000e-01 11=3 12=1 13=1 14=1 2=1 3=1 4=1 5=1 6=18432 9=2
Split                    splitncnn_109            1 4 740 741 742 743 744
Concat                   cat_108                  2 1 733 741 745 0=0
Convolution              convrelu_109             1 1 745 746 0=32 1=3 -23310=1,2.000000e-01 11=3 12=1 13=1 14=1 2=1 3=1 4=1 5=1 6=27648 9=2
Split                    splitncnn_110            1 3 746 747 748 749
Concat                   cat_109                  3 1 734 742 747 750 0=0
Convolution              convrelu_110             1 1 750 751 0=32 1=3 -23310=1,2.000000e-01 11=3 12=1 13=1 14=1 2=1 3=1 4=1 5=1 6=36864 9=2
Split                    splitncnn_111            1 2 751 752 753
Concat                   cat_110                  4 1 735 743 748 752 754 0=0
Convolution              convrelu_111             1 1 754 755 0=32 1=3 -23310=1,2.000000e-01 11=3 12=1 13=1 14=1 2=1 3=1 4=1 5=1 6=46080 9=2
Concat                   cat_111                  5 1 736 744 749 753 755 756 0=0
Convolution              conv_141                 1 1 756 757 0=64 1=3 11=3 12=1 13=1 14=1 2=1 3=1 4=1 5=1 6=110592
BinaryOp                 mul_72                   1 1 757 758 0=2 1=1 2=2.000000e-01
BinaryOp                 add_73                   2 1 758 737 759 0=0
Split                    splitncnn_112            1 6 759 760 761 762 763 764 765
Convolution              convrelu_112             1 1 765 766 0=32 1=3 -23310=1,2.000000e-01 11=3 12=1 13=1 14=1 2=1 3=1 4=1 5=1 6=18432 9=2
Split                    splitncnn_113            1 4 766 767 768 769 770
Concat                   cat_112                  2 1 760 767 771 0=0
Convolution              convrelu_113             1 1 771 772 0=32 1=3 -23310=1,2.000000e-01 11=3 12=1 13=1 14=1 2=1 3=1 4=1 5=1 6=27648 9=2
Split                    splitncnn_114            1 3 772 773 774 775
Concat                   cat_113                  3 1 761 768 773 776 0=0
Convolution              convrelu_114             1 1 776 777 0=32 1=3 -23310=1,2.000000e-01 11=3 12=1 13=1 14=1 2=1 3=1 4=1 5=1 6=36864 9=2
Split                    splitncnn_115            1 2 777 778 779
Concat                   cat_114                  4 1 762 769 774 778 780 0=0
Convolution              convrelu_115             1 1 780 781 0=32 1=3 -23310=1,2.000000e-01 11=3 12=1 13=1 14=1 2=1 3=1 4=1 5=1 6=46080 9=2
Concat                   cat_115                  5 1 763 770 775 779 781 782 0=0
Convolution              conv_146                 1 1 782 783 0=64 1=3 11=3 12=1 13=1 14=1 2=1 3=1 4=1 5=1 6=110592
BinaryOp                 mul_74                   1 1 783 784 0=2 1=1 2=2.000000e-01
BinaryOp                 add_75                   2 1 784 764 785 0=0
Split                    splitncnn_116            1 6 785 786 787 788 789 790 791
Convolution              convrelu_116             1 1 791 792 0=32 1=3 -23310=1,2.000000e-01 11=3 12=1 13=1 14=1 2=1 3=1 4=1 5=1 6=18432 9=2
Split                    splitncnn_117            1 4 792 793 794 795 796
Concat                   cat_116                  2 1 786 793 797 0=0
Convolution              convrelu_117             1 1 797 798 0=32 1=3 -23310=1,2.000000e-01 11=3 12=1 13=1 14=1 2=1 3=1 4=1 5=1 6=27648 9=2
Split                    splitncnn_118            1 3 798 799 800 801
Concat                   cat_117                  3 1 787 794 799 802 0=0
Convolution              convrelu_118             1 1 802 803 0=32 1=3 -23310=1,2.000000e-01 11=3 12=1 13=1 14=1 2=1 3=1 4=1 5=1 6=36864 9=2
Split                    splitncnn_119            1 2 803 804 805
Concat                   cat_118                  4 1 788 795 800 804 806 0=0
Convolution              convrelu_119             1 1 806 807 0=32 1=3 -23310=1,2.000000e-01 11=3 12=1 13=1 14=1 2=1 3=1 4=1 5=1 6=46080 9=2
Concat                   cat_119                  5 1 789 796 801 805 807 808 0=0
Convolution              conv_151                 1 1 808 809 0=64 1=3 11=3 12=1 13=1 14=1 2=1 3=1 4=1 5=1 6=110592
BinaryOp                 mul_76                   1 1 809 810 0=2 1=1 2=2.000000e-01
BinaryOp                 add_77                   2 1 810 790 811 0=0
BinaryOp                 mul_78                   1 1 811 812 0=2 1=1 2=2.000000e-01
BinaryOp                 add_79                   2 1 812 738 813 0=0
Split                    splitncnn_120            1 7 813 814 815 816 817 818 819 820
Convolution              convrelu_120             1 1 820 821 0=32 1=3 -23310=1,2.000000e-01 11=3 12=1 13=1 14=1 2=1 3=1 4=1 5=1 6=18432 9=2
Split                    splitncnn_121            1 4 821 822 823 824 825
Concat                   cat_120                  2 1 814 822 826 0=0
Convolution              convrelu_121             1 1 826 827 0=32 1=3 -23310=1,2.000000e-01 11=3 12=1 13=1 14=1 2=1 3=1 4=1 5=1 6=27648 9=2
Split                    splitncnn_122            1 3 827 828 829 830
Concat                   cat_121                  3 1 815 823 828 831 0=0
Convolution              convrelu_122             1 1 831 832 0=32 1=3 -23310=1,2.000000e-01 11=3 12=1 13=1 14=1 2=1 3=1 4=1 5=1 6=36864 9=2
Split                    splitncnn_123            1 2 832 833 834
Concat                   cat_122                  4 1 816 824 829 833 835 0=0
Convolution              convrelu_123             1 1 835 836 0=32 1=3 -23310=1,2.000000e-01 11=3 12=1 13=1 14=1 2=1 3=1 4=1 5=1 6=46080 9=2
Concat                   cat_123                  5 1 817 825 830 834 836 837 0=0
Convolution              conv_156                 1 1 837 838 0=64 1=3 11=3 12=1 13=1 14=1 2=1 3=1 4=1 5=1 6=110592
BinaryOp                 mul_80                   1 1 838 839 0=2 1=1 2=2.000000e-01
BinaryOp                 add_81                   2 1 839 818 840 0=0
Split                    splitncnn_124            1 6 840 841 842 843 844 845 846
Convolution              convrelu_124             1 1 846 847 0=32 1=3 -23310=1,2.000000e-01 11=3 12=1 13=1 14=1 2=1 3=1 4=1 5=1 6=18432 9=2
Split                    splitncnn_125            1 4 847 848 849 850 851
Concat                   cat_124                  2 1 841 848 852 0=0
Convolution              convrelu_125             1 1 852 853 0=32 1=3 -23310=1,2.000000e-01 11=3 12=1 13=1 14=1 2=1 3=1 4=1 5=1 6=27648 9=2
Split                    splitncnn_126            1 3 853 854 855 856
Concat                   cat_125                  3 1 842 849 854 857 0=0
Convolution              convrelu_126             1 1 857 858 0=32 1=3 -23310=1,2.000000e-01 11=3 12=1 13=1 14=1 2=1 3=1 4=1 5=1 6=36864 9=2
Split                    splitncnn_127            1 2 858 859 860
Concat                   cat_126                  4 1 843 850 855 859 861 0=0
Convolution              convrelu_127             1 1 861 862 0=32 1=3 -23310=1,2.000000e-01 11=3 12=1 13=1 14=1 2=1 3=1 4=1 5=1 6=46080 9=2
Concat                   cat_127                  5 1 844 851 856 860 862 863 0=0
Convolution              conv_161                 1 1 863 864 0=64 1=3 11=3 12=1 13=1 14=1 2=1 3=1 4=1 5=1 6=110592
BinaryOp                 mul_82                   1 1 864 865 0=2 1=1 2=2.000000e-01
BinaryOp                 add_83                   2 1 865 845 866 0=0
Split                    splitncnn_128            1 6 866 867 868 869 870 871 872
Convolution              convrelu_128             1 1 872 873 0=32 1=3 -23310=1,2.000000e-01 11=3 12=1 13=1 14=1 2=1 3=1 4=1 5=1 6=18432 9=2
Split                    splitncnn_129            1 4 873 874 875 876 877
Concat                   cat_128                  2 1 867 874 878 0=0
Convolution              convrelu_129             1 1 878 879 0=32 1=3 -23310=1,2.000000e-01 11=3 12=1 13=1 14=1 2=1 3=1 4=1 5=1 6=27648 9=2
Split                    splitncnn_130            1 3 879 880 881 882
Concat                   cat_129                  3 1 868 875 880 883 0=0
Convolution              convrelu_130             1 1 883 884 0=32 1=3 -23310=1,2.000000e-01 11=3 12=1 13=1 14=1 2=1 3=1 4=1 5=1 6=36864 9=2
Split                    splitncnn_131            1 2 884 885 886
Concat                   cat_130                  4 1 869 876 881 885 887 0=0
Convolution              convrelu_131             1 1 887 888 0=32 1=3 -23310=1,2.000000e-01 11=3 12=1 13=1 14=1 2=1 3=1 4=1 5=1 6=46080 9=2
Concat                   cat_131                  5 1 870 877 882 886 888 889 0=0
Convolution              conv_166                 1 1 889 890 0=64 1=3 11=3 12=1 13=1 14=1 2=1 3=1 4=1 5=1 6=110592
BinaryOp                 mul_84                   1 1 890 891 0=2 1=1 2=2.000000e-01
BinaryOp                 add_85                   2 1 891 871 892 0=0
BinaryOp                 mul_86                   1 1 892 893 0=2 1=1 2=2.000000e-01
BinaryOp                 add_87                   2 1 893 819 894 0=0
Split                    splitncnn_132            1 7 894 895 896 897 898 899 900 901
Convolution              convrelu_132             1 1 901 902 0=32 1=3 -23310=1,2.000000e-01 11=3 12=1 13=1 14=1 2=1 3=1 4=1 5=1 6=18432 9=2
Split                    splitncnn_133            1 4 902 903 904 905 906
Concat                   cat_132                  2 1 895 903 907 0=0
Convolution              convrelu_133             1 1 907 908 0=32 1=3 -23310=1,2.000000e-01 11=3 12=1 13=1 14=1 2=1 3=1 4=1 5=1 6=27648 9=2
Split                    splitncnn_134            1 3 908 909 910 911
Concat                   cat_133                  3 1 896 904 909 912 0=0
Convolution              convrelu_134             1 1 912 913 0=32 1=3 -23310=1,2.000000e-01 11=3 12=1 13=1 14=1 2=1 3=1 4=1 5=1 6=36864 9=2
Split                    splitncnn_135            1 2 913 914 915
Concat                   cat_134                  4 1 897 905 910 914 916 0=0
Convolution              convrelu_135             1 1 916 917 0=32 1=3 -23310=1,2.000000e-01 11=3 12=1 13=1 14=1 2=1 3=1 4=1 5=1 6=46080 9=2
Concat                   cat_135                  5 1 898 906 911 915 917 918 0=0
Convolution              conv_171                 1 1 918 919 0=64 1=3 11=3 12=1 13=1 14=1 2=1 3=1 4=1 5=1 6=110592
BinaryOp                 mul_88                   1 1 919 920 0=2 1=1 2=2.000000e-01
BinaryOp                 add_89                   2 1 920 899 921 0=0
Split                    splitncnn_136            1 6 921 922 923 924 925 926 927
Convolution              convrelu_136             1 1 927 928 0=32 1=3 -23310=1,2.000000e-01 11=3 12=1 13=1 14=1 2=1 3=1 4=1 5=1 6=18432 9=2
Split                    splitncnn_137            1 4 928 929 930 931 932
Concat                   cat_136                  2 1 922 929 933 0=0
Convolution              convrelu_137             1 1 933 934 0=32 1=3 -23310=1,2.000000e-01 11=3 12=1 13=1 14=1 2=1 3=1 4=1 5=1 6=27648 9=2
Split                    splitncnn_138            1 3 934 935 936 937
Concat                   cat_137                  3 1 923 930 935 938 0=0
Convolution              convrelu_138             1 1 938 939 0=32 1=3 -23310=1,2.000000e-01 11=3 12=1 13=1 14=1 2=1 3=1 4=1 5=1 6=36864 9=2
Split                    splitncnn_139            1 2 939 940 941
Concat                   cat_138                  4 1 924 931 936 940 942 0=0
Convolution              convrelu_139             1 1 942 943 0=32 1=3 -23310=1,2.000000e-01 11=3 12=1 13=1 14=1 2=1 3=1 4=1 5=1 6=46080 9=2
Concat                   cat_139                  5 1 925 932 937 941 943 944 0=0
Convolution              conv_176                 1 1 944 945 0=64 1=3 11=3 12=1 13=1 14=1 2=1 3=1 4=1 5=1 6=110592
BinaryOp                 mul_90                   1 1 945 946 0=2 1=1 2=2.000000e-01
BinaryOp                 add_91                   2 1 946 926 947 0=0
Split                    splitncnn_140            1 6 947 948 949 950 951 952 953
Convolution              convrelu_140             1 1 953 954 0=32 1=3 -23310=1,2.000000e-01 11=3 12=1 13=1 14=1 2=1 3=1 4=1 5=1 6=18432 9=2
Split                    splitncnn_141            1 4 954 955 956 957 958
Concat                   cat_140                  2 1 948 955 959 0=0
Convolution              convrelu_141             1 1 959 960 0=32 1=3 -23310=1,2.000000e-01 11=3 12=1 13=1 14=1 2=1 3=1 4=1 5=1 6=27648 9=2
Split                    splitncnn_142            1 3 960 961 962 963
Concat                   cat_141                  3 1 949 956 961 964 0=0
Convolution              convrelu_142             1 1 964 965 0=32 1=3 -23310=1,2.000000e-01 11=3 12=1 13=1 14=1 2=1 3=1 4=1 5=1 6=36864 9=2
Split                    splitncnn_143            1 2 965 966 967
Concat                   cat_142                  4 1 950 957 962 966 968 0=0
Convolution              convrelu_143             1 1 968 969 0=32 1=3 -23310=1,2.000000e-01 11=3 12=1 13=1 14=1 2=1 3=1 4=1 5=1 6=46080 9=2
Concat                   cat_143                  5 1 951 958 963 967 969 970 0=0
Convolution              conv_181                 1 1 970 971 0=64 1=3 11=3 12=1 13=1 14=1 2=1 3=1 4=1 5=1 6=110592
BinaryOp                 mul_92                   1 1 971 972 0=2 1=1 2=2.000000e-01
BinaryOp                 add_93                   2 1 972 952 973 0=0
BinaryOp                 mul_94                   1 1 973 974 0=2 1=1 2=2.000000e-01
BinaryOp                 add_95                   2 1 974 900 975 0=0
Split                    splitncnn_144            1 7 975 976 977 978 979 980 981 982
Convolution              convrelu_144             1 1 982 983 0=32 1=3 -23310=1,2.000000e-01 11=3 12=1 13=1 14=1 2=1 3=1 4=1 5=1 6=18432 9=2
Split                    splitncnn_145            1 4 983 984 985 986 987
Concat                   cat_144                  2 1 976 984 988 0=0
Convolution              convrelu_145             1 1 988 989 0=32 1=3 -23310=1,2.000000e-01 11=3 12=1 13=1 14=1 2=1 3=1 4=1 5=1 6=27648 9=2
Split                    splitncnn_146            1 3 989 990 991 992
Concat                   cat_145                  3 1 977 985 990 993 0=0
Convolution              convrelu_146             1 1 993 994 0=32 1=3 -23310=1,2.000000e-01 11=3 12=1 13=1 14=1 2=1 3=1 4=1 5=1 6=36864 9=2
Split                    splitncnn_147            1 2 994 995 996
Concat                   cat_146                  4 1 978 986 991 995 997 0=0
Convolution              convrelu_147             1 1 997 998 0=32 1=3 -23310=1,2.000000e-01 11=3 12=1 13=1 14=1 2=1 3=1 4=1 5=1 6=46080 9=2
Concat                   cat_147                  5 1 979 987 992 996 998 999 0=0
Convolution              conv_186                 1 1 999 1000 0=64 1=3 11=3 12=1 13=1 14=1 2=1 3=1 4=1 5=1 6=110592
BinaryOp                 mul_96                   1 1 1000 1001 0=2 1=1 2=2.000000e-01
BinaryOp                 add_97                   2 1 1001 980 1002 0=0
Split                    splitncnn_148            1 6 1002 1003 1004 1005 1006 1007 1008
Convolution              convrelu_148             1 1 1008 1009 0=32 1=3 -23310=1,2.000000e-01 11=3 12=1 13=1 14=1 2=1 3=1 4=1 5=1 6=18432 9=2
Split                    splitncnn_149            1 4 1009 1010 1011 1012 1013
Concat                   cat_148                  2 1 1003 1010 1014 0=0
Convolution              convrelu_149             1 1 1014 1015 0=32 1=3 -23310=1,2.000000e-01 11=3 12=1 13=1 14=1 2=1 3=1 4=1 5=1 6=27648 9=2
Split                    splitncnn_150            1 3 1015 1016 1017 1018
Concat                   cat_149                  3 1 1004 1011 1016 1019 0=0
Convolution              convrelu_150             1 1 1019 1020 0=32 1=3 -23310=1,2.000000e-01 11=3 12=1 13=1 14=1 2=1 3=1 4=1 5=1 6=36864 9=2
Split                    splitncnn_151            1 2 1020 1021 1022
Concat                   cat_150                  4 1 1005 1012 1017 1021 1023 0=0
Convolution              convrelu_151             1 1 1023 1024 0=32 1=3 -23310=1,2.000000e-01 11=3 12=1 13=1 14=1 2=1 3=1 4=1 5=1 6=46080 9=2
Concat                   cat_151                  5 1 1006 1013 1018 1022 1024 1025 0=0
Convolution              conv_191                 1 1 1025 1026 0=64 1=3 11=3 12=1 13=1 14=1 2=1 3=1 4=1 5=1 6=110592
BinaryOp                 mul_98                   1 1 1026 1027 0=2 1=1 2=2.000000e-01
BinaryOp                 add_99                   2 1 1027 1007 1028 0=0
Split                    splitncnn_152            1 6 1028 1029 1030 1031 1032 1033 1034
Convolution              convrelu_152             1 1 1034 1035 0=32 1=3 -23310=1,2.000000e-01 11=3 12=1 13=1 14=1 2=1 3=1 4=1 5=1 6=18432 9=2
Split                    splitncnn_153            1 4 1035 1036 1037 1038 1039
Concat                   cat_152                  2 1 1029 1036 1040 0=0
Convolution              convrelu_153             1 1 1040 1041 0=32 1=3 -23310=1,2.000000e-01 11=3 12=1 13=1 14=1 2=1 3=1 4=1 5=1 6=27648 9=2
Split                    splitncnn_154            1 3 1041 1042 1043 1044
Concat                   cat_153                  3 1 1030 1037 1042 1045 0=0
Convolution              convrelu_154             1 1 1045 1046 0=32 1=3 -23310=1,2.000000e-01 11=3 12=1 13=1 14=1 2=1 3=1 4=1 5=1 6=36864 9=2
Split                    splitncnn_155            1 2 1046 1047 1048
Concat                   cat_154                  4 1 1031 1038 1043 1047 1049 0=0
Convolution              convrelu_155             1 1 1049 1050 0=32 1=3 -23310=1,2.000000e-01 11=3 12=1 13=1 14=1 2=1 3=1 4=1 5=1 6=46080 9=2
Concat                   cat_155                  5 1 1032 1039 1044 1048 1050 1051 0=0
Convolution              conv_196                 1 1 1051 1052 0=64 1=3 11=3 12=1 13=1 14=1 2=1 3=1 4=1 5=1 6=110592
BinaryOp                 mul_100                  1 1 1052 1053 0=2 1=1 2=2.000000e-01
BinaryOp                 add_101                  2 1 1053 1033 1054 0=0
BinaryOp                 mul_102                  1 1 1054 1055 0=2 1=1 2=2.000000e-01
BinaryOp                 add_103                  2 1 1055 981 1056 0=0
Split                    splitncnn_156            1 7 1056 1057 1058 1059 1060 1061 1062 1063
Convolution              convrelu_156             1 1 1063 1064 0=32 1=3 -23310=1,2.000000e-01 11=3 12=1 13=1 14=1 2=1 3=1 4=1 5=1 6=18432 9=2
Split                    splitncnn_157            1 4 1064 1065 1066 1067 1068
Concat                   cat_156                  2 1 1057 1065 1069 0=0
Convolution              convrelu_157             1 1 1069 1070 0=32 1=3 -23310=1,2.000000e-01 11=3 12=1 13=1 14=1 2=1 3=1 4=1 5=1 6=27648 9=2
Split                    splitncnn_158            1 3 1070 1071 1072 1073
Concat                   cat_157                  3 1 1058 1066 1071 1074 0=0
Convolution              convrelu_158             1 1 1074 1075 0=32 1=3 -23310=1,2.000000e-01 11=3 12=1 13=1 14=1 2=1 3=1 4=1 5=1 6=36864 9=2
Split                    splitncnn_159            1 2 1075 1076 1077
Concat                   cat_158                  4 1 1059 1067 1072 1076 1078 0=0
Convolution              convrelu_159             1 1 1078 1079 0=32 1=3 -23310=1,2.000000e-01 11=3 12=1 13=1 14=1 2=1 3=1 4=1 5=1 6=46080 9=2
Concat                   cat_159                  5 1 1060 1068 1073 1077 1079 1080 0=0
Convolution              conv_201                 1 1 1080 1081 0=64 1=3 11=3 12=1 13=1 14=1 2=1 3=1 4=1 5=1 6=110592
BinaryOp                 mul_104                  1 1 1081 1082 0=2 1=1 2=2.000000e-01
BinaryOp                 add_105                  2 1 1082 1061 1083 0=0
Split                    splitncnn_160            1 6 1083 1084 1085 1086 1087 1088 1089
Convolution              convrelu_160             1 1 1089 1090 0=32 1=3 -23310=1,2.000000e-01 11=3 12=1 13=1 14=1 2=1 3=1 4=1 5=1 6=18432 9=2
Split                    splitncnn_161            1 4 1090 1091 1092 1093 1094
Concat                   cat_160                  2 1 1084 1091 1095 0=0
Convolution              convrelu_161             1 1 1095 1096 0=32 1=3 -23310=1,2.000000e-01 11=3 12=1 13=1 14=1 2=1 3=1 4=1 5=1 6=27648 9=2
Split                    splitncnn_162            1 3 1096 1097 1098 1099
Concat                   cat_161                  3 1 1085 1092 1097 1100 0=0
Convolution              convrelu_162             1 1 1100 1101 0=32 1=3 -23310=1,2.000000e-01 11=3 12=1 13=1 14=1 2=1 3=1 4=1 5=1 6=36864 9=2
Split                    splitncnn_163            1 2 1101 1102 1103
Concat                   cat_162                  4 1 1086 1093 1098 1102 1104 0=0
Convolution              convrelu_163             1 1 1104 1105 0=32 1=3 -23310=1,2.000000e-01 11=3 12=1 13=1 14=1 2=1 3=1 4=1 5=1 6=46080 9=2
Concat                   cat_163                  5 1 1087 1094 1099 1103 1105 1106 0=0
Convolution              conv_206                 1 1 1106 1107 0=64 1=3 11=3 12=1 13=1 14=1 2=1 3=1 4=1 5=1 6=110592
BinaryOp                 mul_106                  1 1 1107 1108 0=2 1=1 2=2.000000e-01
BinaryOp                 add_107                  2 1 1108 1088 1109 0=0
Split                    splitncnn_164            1 6 1109 1110 1111 1112 1113 1114 1115
Convolution              convrelu_164             1 1 1115 1116 0=32 1=3 -23310=1,2.000000e-01 11=3 12=1 13=1 14=1 2=1 3=1 4=1 5=1 6=18432 9=2
Split                    splitncnn_165            1 4 1116 1117 1118 1119 1120
Concat                   cat_164                  2 1 1110 1117 1121 0=0
Convolution              convrelu_165             1 1 1121 1122 0=32 1=3 -23310=1,2.000000e-01 11=3 12=1 13=1 14=1 2=1 3=1 4=1 5=1 6=27648 9=2
Split                    splitncnn_166            1 3 1122 1123 1124 1125
Concat                   cat_165                  3 1 1111 1118 1123 1126 0=0
Convolution              convrelu_166             1 1 1126 1127 0=32 1=3 -23310=1,2.000000e-01 11=3 12=1 13=1 14=1 2=1 3=1 4=1 5=1 6=36864 9=2
Split                    splitncnn_167            1 2 1127 1128 1129
Concat                   cat_166                  4 1 1112 1119 1124 1128 1130 0=0
Convolution              convrelu_167             1 1 1130 1131 0=32 1=3 -23310=1,2.000000e-01 11=3 12=1 13=1 14=1 2=1 3=1 4=1 5=1 6=46080 9=2
Concat                   cat_167                  5 1 1113 1120 1125 1129 1131 1132 0=0
Convolution              conv_211                 1 1 1132 1133 0=64 1=3 11=3 12=1 13=1 14=1 2=1 3=1 4=1 5=1 6=110592
BinaryOp                 mul_108                  1 1 1133 1134 0=2 1=1 2=2.000000e-01
BinaryOp                 add_109                  2 1 1134 1114 1135 0=0
BinaryOp                 mul_110                  1 1 1135 1136 0=2 1=1 2=2.000000e-01
BinaryOp                 add_111                  2 1 1136 1062 1137 0=0
Split                    splitncnn_168            1 7 1137 1138 1139 1140 1141 1142 1143 1144
Convolution              convrelu_168             1 1 1144 1145 0=32 1=3 -23310=1,2.000000e-01 11=3 12=1 13=1 14=1 2=1 3=1 4=1 5=1 6=18432 9=2
Split                    splitncnn_169            1 4 1145 1146 1147 1148 1149
Concat                   cat_168                  2 1 1138 1146 1150 0=0
Convolution              convrelu_169             1 1 1150 1151 0=32 1=3 -23310=1,2.000000e-01 11=3 12=1 13=1 14=1 2=1 3=1 4=1 5=1 6=27648 9=2
Split                    splitncnn_170            1 3 1151 1152 1153 1154
Concat                   cat_169                  3 1 1139 1147 1152 1155 0=0
Convolution              convrelu_170             1 1 1155 1156 0=32 1=3 -23310=1,2.000000e-01 11=3 12=1 13=1 14=1 2=1 3=1 4=1 5=1 6=36864 9=2
Split                    splitncnn_171            1 2 1156 1157 1158
Concat                   cat_170                  4 1 1140 1148 1153 1157 1159 0=0
Convolution              convrelu_171             1 1 1159 1160 0=32 1=3 -23310=1,2.000000e-01 11=3 12=1 13=1 14=1 2=1 3=1 4=1 5=1 6=46080 9=2
Concat                   cat_171                  5 1 1141 1149 1154 1158 1160 1161 0=0
Convolution              conv_216                 1 1 1161 1162 0=64 1=3 11=3 12=1 13=1 14=1 2=1 3=1 4=1 5=1 6=110592
BinaryOp                 mul_112                  1 1 1162 1163 0=2 1=1 2=2.000000e-01
BinaryOp                 add_113                  2 1 1163 1142 1164 0=0
Split                    splitncnn_172            1 6 1164 1165 1166 1167 1168 1169 1170
Convolution              convrelu_172             1 1 1170 1171 0=32 1=3 -23310=1,2.000000e-01 11=3 12=1 13=1 14=1 2=1 3=1 4=1 5=1 6=18432 9=2
Split                    splitncnn_173            1 4 1171 1172 1173 1174 1175
Concat                   cat_172                  2 1 1165 1172 1176 0=0
Convolution              convrelu_173             1 1 1176 1177 0=32 1=3 -23310=1,2.000000e-01 11=3 12=1 13=1 14=1 2=1 3=1 4=1 5=1 6=27648 9=2
Split                    splitncnn_174            1 3 1177 1178 1179 1180
Concat                   cat_173                  3 1 1166 1173 1178 1181 0=0
Convolution              convrelu_174             1 1 1181 1182 0=32 1=3 -23310=1,2.000000e-01 11=3 12=1 13=1 14=1 2=1 3=1 4=1 5=1 6=36864 9=2
Split                    splitncnn_175            1 2 1182 1183 1184
Concat                   cat_174                  4 1 1167 1174 1179 1183 1185 0=0
Convolution              convrelu_175             1 1 1185 1186 0=32 1=3 -23310=1,2.000000e-01 11=3 12=1 13=1 14=1 2=1 3=1 4=1 5=1 6=46080 9=2
Concat                   cat_175                  5 1 1168 1175 1180 1184 1186 1187 0=0
Convolution              conv_221                 1 1 1187 1188 0=64 1=3 11=3 12=1 13=1 14=1 2=1 3=1 4=1 5=1 6=110592
BinaryOp                 mul_114                  1 1 1188 1189 0=2 1=1 2=2.000000e-01
BinaryOp                 add_115                  2 1 1189 1169 1190 0=0
Split                    splitncnn_176            1 6 1190 1191 1192 1193 1194 1195 1196
Convolution              convrelu_176             1 1 1196 1197 0=32 1=3 -23310=1,2.000000e-01 11=3 12=1 13=1 14=1 2=1 3=1 4=1 5=1 6=18432 9=2
Split                    splitncnn_177            1 4 1197 1198 1199 1200 1201
Concat                   cat_176                  2 1 1191 1198 1202 0=0
Convolution              convrelu_177             1 1 1202 1203 0=32 1=3 -23310=1,2.000000e-01 11=3 12=1 13=1 14=1 2=1 3=1 4=1 5=1 6=27648 9=2
Split                    splitncnn_178            1 3 1203 1204 1205 1206
Concat                   cat_177                  3 1 1192 1199 1204 1207 0=0
Convolution              convrelu_178             1 1 1207 1208 0=32 1=3 -23310=1,2.000000e-01 11=3 12=1 13=1 14=1 2=1 3=1 4=1 5=1 6=36864 9=2
Split                    splitncnn_179            1 2 1208 1209 1210
Concat                   cat_178                  4 1 1193 1200 1205 1209 1211 0=0
Convolution              convrelu_179             1 1 1211 1212 0=32 1=3 -23310=1,2.000000e-01 11=3 12=1 13=1 14=1 2=1 3=1 4=1 5=1 6=46080 9=2
Concat                   cat_179                  5 1 1194 1201 1206 1210 1212 1213 0=0
Convolution              conv_226                 1 1 1213 1214 0=64 1=3 11=3 12=1 13=1 14=1 2=1 3=1 4=1 5=1 6=110592
BinaryOp                 mul_116                  1 1 1214 1215 0=2 1=1 2=2.000000e-01
BinaryOp                 add_117                  2 1 1215 1195 1216 0=0
BinaryOp                 mul_118                  1 1 1216 1217 0=2 1=1 2=2.000000e-01
BinaryOp                 add_119                  2 1 1217 1143 1218 0=0
Split                    splitncnn_180            1 7 1218 1219 1220 1221 1222 1223 1224 1225
Convolution              convrelu_180             1 1 1225 1226 0=32 1=3 -23310=1,2.000000e-01 11=3 12=1 13=1 14=1 2=1 3=1 4=1 5=1 6=18432 9=2
Split                    splitncnn_181            1 4 1226 1227 1228 1229 1230
Concat                   cat_180                  2 1 1219 1227 1231 0=0
Convolution              convrelu_181             1 1 1231 1232 0=32 1=3 -23310=1,2.000000e-01 11=3 12=1 13=1 14=1 2=1 3=1 4=1 5=1 6=27648 9=2
Split                    splitncnn_182            1 3 1232 1233 1234 1235
Concat                   cat_181                  3 1 1220 1228 1233 1236 0=0
Convolution              convrelu_182             1 1 1236 1237 0=32 1=3 -23310=1,2.000000e-01 11=3 12=1 13=1 14=1 2=1 3=1 4=1 5=1 6=36864 9=2
Split                    splitncnn_183            1 2 1237 1238 1239
Concat                   cat_182                  4 1 1221 1229 1234 1238 1240 0=0
Convolution              convrelu_183             1 1 1240 1241 0=32 1=3 -23310=1,2.000000e-01 11=3 12=1 13=1 14=1 2=1 3=1 4=1 5=1 6=46080 9=2
Concat                   cat_183                  5 1 1222 1230 1235 1239 1241 1242 0=0
Convolution              conv_231                 1 1 1242 1243 0=64 1=3 11=3 12=1 13=1 14=1 2=1 3=1 4=1 5=1 6=110592
BinaryOp                 mul_120                  1 1 1243 1244 0=2 1=1 2=2.000000e-01
BinaryOp                 add_121                  2 1 1244 1223 1245 0=0
Split                    splitncnn_184            1 6 1245 1246 1247 1248 1249 1250 1251
Convolution              convrelu_184             1 1 1251 1252 0=32 1=3 -23310=1,2.000000e-01 11=3 12=1 13=1 14=1 2=1 3=1 4=1 5=1 6=18432 9=2
Split                    splitncnn_185            1 4 1252 1253 1254 1255 1256
Concat                   cat_184                  2 1 1246 1253 1257 0=0
Convolution              convrelu_185             1 1 1257 1258 0=32 1=3 -23310=1,2.000000e-01 11=3 12=1 13=1 14=1 2=1 3=1 4=1 5=1 6=27648 9=2
Split                    splitncnn_186            1 3 1258 1259 1260 1261
Concat                   cat_185                  3 1 1247 1254 1259 1262 0=0
Convolution              convrelu_186             1 1 1262 1263 0=32 1=3 -23310=1,2.000000e-01 11=3 12=1 13=1 14=1 2=1 3=1 4=1 5=1 6=36864 9=2
Split                    splitncnn_187            1 2 1263 1264 1265
Concat                   cat_186                  4 1 1248 1255 1260 1264 1266 0=0
Convolution              convrelu_187             1 1 1266 1267 0=32 1=3 -23310=1,2.000000e-01 11=3 12=1 13=1 14=1 2=1 3=1 4=1 5=1 6=46080 9=2
Concat                   cat_187                  5 1 1249 1256 1261 1265 1267 1268 0=0
Convolution              conv_236                 1 1 1268 1269 0=64 1=3 11=3 12=1 13=1 14=1 2=1 3=1 4=1 5=1 6=110592
BinaryOp                 mul_122                  1 1 1269 1270 0=2 1=1 2=2.000000e-01
BinaryOp                 add_123                  2 1 1270 1250 1271 0=0
Split                    splitncnn_188            1 6 1271 1272 1273 1274 1275 1276 1277
Convolution              convrelu_188             1 1 1277 1278 0=32 1=3 -23310=1,2.000000e-01 11=3 12=1 13=1 14=1 2=1 3=1 4=1 5=1 6=18432 9=2
Split                    splitncnn_189            1 4 1278 1279 1280 1281 1282
Concat                   cat_188                  2 1 1272 1279 1283 0=0
Convolution              convrelu_189             1 1 1283 1284 0=32 1=3 -23310=1,2.000000e-01 11=3 12=1 13=1 14=1 2=1 3=1 4=1 5=1 6=27648 9=2
Split                    splitncnn_190            1 3 1284 1285 1286 1287
Concat                   cat_189                  3 1 1273 1280 1285 1288 0=0
Convolution              convrelu_190             1 1 1288 1289 0=32 1=3 -23310=1,2.000000e-01 11=3 12=1 13=1 14=1 2=1 3=1 4=1 5=1 6=36864 9=2
Split                    splitncnn_191            1 2 1289 1290 1291
Concat                   cat_190                  4 1 1274 1281 1286 1290 1292 0=0
Convolution              convrelu_191             1 1 1292 1293 0=32 1=3 -23310=1,2.000000e-01 11=3 12=1 13=1 14=1 2=1 3=1 4=1 5=1 6=46080 9=2
Concat                   cat_191                  5 1 1275 1282 1287 1291 1293 1294 0=0
Convolution              conv_241                 1 1 1294 1295 0=64 1=3 11=3 12=1 13=1 14=1 2=1 3=1 4=1 5=1 6=110592
BinaryOp                 mul_124                  1 1 1295 1296 0=2 1=1 2=2.000000e-01
BinaryOp                 add_125                  2 1 1296 1276 1297 0=0
BinaryOp                 mul_126                  1 1 1297 1298 0=2 1=1 2=2.000000e-01
BinaryOp                 add_127                  2 1 1298 1224 1299 0=0
Split                    splitncnn_192            1 7 1299 1300 1301 1302 1303 1304 1305 1306
Convolution              convrelu_192             1 1 1306 1307 0=32 1=3 -23310=1,2.000000e-01 11=3 12=1 13=1 14=1 2=1 3=1 4=1 5=1 6=18432 9=2
Split                    splitncnn_193            1 4 1307 1308 1309 1310 1311
Concat                   cat_192                  2 1 1300 1308 1312 0=0
Convolution              convrelu_193             1 1 1312 1313 0=32 1=3 -23310=1,2.000000e-01 11=3 12=1 13=1 14=1 2=1 3=1 4=1 5=1 6=27648 9=2
Split                    splitncnn_194            1 3 1313 1314 1315 1316
Concat                   cat_193                  3 1 1301 1309 1314 1317 0=0
Convolution              convrelu_194             1 1 1317 1318 0=32 1=3 -23310=1,2.000000e-01 11=3 12=1 13=1 14=1 2=1 3=1 4=1 5=1 6=36864 9=2
Split                    splitncnn_195            1 2 1318 1319 1320
Concat                   cat_194                  4 1 1302 1310 1315 1319 1321 0=0
Convolution              convrelu_195             1 1 1321 1322 0=32 1=3 -23310=1,2.000000e-01 11=3 12=1 13=1 14=1 2=1 3=1 4=1 5=1 6=46080 9=2
Concat                   cat_195                  5 1 1303 1311 1316 1320 1322 1323 0=0
Convolution              conv_246                 1 1 1323 1324 0=64 1=3 11=3 12=1 13=1 14=1 2=1 3=1 4=1 5=1 6=110592
BinaryOp                 mul_128                  1 1 1324 1325 0=2 1=1 2=2.000000e-01
BinaryOp                 add_129                  2 1 1325 1304 1326 0=0
Split                    splitncnn_196            1 6 1326 1327 1328 1329 1330 1331 1332
Convolution              convrelu_196             1 1 1332 1333 0=32 1=3 -23310=1,2.000000e-01 11=3 12=1 13=1 14=1 2=1 3=1 4=1 5=1 6=18432 9=2
Split                    splitncnn_197            1 4 1333 1334 1335 1336 1337
Concat                   cat_196                  2 1 1327 1334 1338 0=0
Convolution              convrelu_197             1 1 1338 1339 0=32 1=3 -23310=1,2.000000e-01 11=3 12=1 13=1 14=1 2=1 3=1 4=1 5=1 6=27648 9=2
Split                    splitncnn_198            1 3 1339 1340 1341 1342
Concat                   cat_197                  3 1 1328 1335 1340 1343 0=0
Convolution              convrelu_198             1 1 1343 1344 0=32 1=3 -23310=1,2.000000e-01 11=3 12=1 13=1 14=1 2=1 3=1 4=1 5=1 6=36864 9=2
Split                    splitncnn_199            1 2 1344 1345 1346
Concat                   cat_198                  4 1 1329 1336 1341 1345 1347 0=0
Convolution              convrelu_199             1 1 1347 1348 0=32 1=3 -23310=1,2.000000e-01 11=3 12=1 13=1 14=1 2=1 3=1 4=1 5=1 6=46080 9=2
Concat                   cat_199                  5 1 1330 1337 1342 1346 1348 1349 0=0
Convolution              conv_251                 1 1 1349 1350 0=64 1=3 11=3 12=1 13=1 14=1 2=1 3=1 4=1 5=1 6=110592
BinaryOp                 mul_130                  1 1 1350 1351 0=2 1=1 2=2.000000e-01
BinaryOp                 add_131                  2 1 1351 1331 1352 0=0
Split                    splitncnn_200            1 6 1352 1353 1354 1355 1356 1357 1358
Convolution              convrelu_200             1 1 1358 1359 0=32 1=3 -23310=1,2.000000e-01 11=3 12=1 13=1 14=1 2=1 3=1 4=1 5=1 6=18432 9=2
Split                    splitncnn_201            1 4 1359 1360 1361 1362 1363
Concat                   cat_200                  2 1 1353 1360 1364 0=0
Convolution              convrelu_201             1 1 1364 1365 0=32 1=3 -23310=1,2.000000e-01 11=3 12=1 13=1 14=1 2=1 3=1 4=1 5=1 6=27648 9=2
Split                    splitncnn_202            1 3 1365 1366 1367 1368
Concat                   cat_201                  3 1 1354 1361 1366 1369 0=0
Convolution              convrelu_202             1 1 1369 1370 0=32 1=3 -23310=1,2.000000e-01 11=3 12=1 13=1 14=1 2=1 3=1 4=1 5=1 6=36864 9=2
Split                    splitncnn_203            1 2 1370 1371 1372
Concat                   cat_202                  4 1 1355 1362 1367 1371 1373 0=0
Convolution              convrelu_203             1 1 1373 1374 0=32 1=3 -23310=1,2.000000e-01 11=3 12=1 13=1 14=1 2=1 3=1 4=1 5=1 6=46080 9=2
Concat                   cat_203                  5 1 1356 1363 1368 1372 1374 1375 0=0
Convolution              conv_256                 1 1 1375 1376 0=64 1=3 11=3 12=1 13=1 14=1 2=1 3=1 4=1 5=1 6=110592
BinaryOp                 mul_132                  1 1 1376 1377 0=2 1=1 2=2.000000e-01
BinaryOp                 add_133                  2 1 1377 1357 1378 0=0
BinaryOp                 mul_134                  1 1 1378 1379 0=2 1=1 2=2.000000e-01
BinaryOp                 add_135                  2 1 1379 1305 1380 0=0
Split                    splitncnn_204            1 7 1380 1381 1382 1383 1384 1385 1386 1387
Convolution              convrelu_204             1 1 1387 1388 0=32 1=3 -23310=1,2.000000e-01 11=3 12=1 13=1 14=1 2=1 3=1 4=1 5=1 6=18432 9=2
Split                    splitncnn_205            1 4 1388 1389 1390 1391 1392
Concat                   cat_204                  2 1 1381 1389 1393 0=0
Convolution              convrelu_205             1 1 1393 1394 0=32 1=3 -23310=1,2.000000e-01 11=3 12=1 13=1 14=1 2=1 3=1 4=1 5=1 6=27648 9=2
Split                    splitncnn_206            1 3 1394 1395 1396 1397
Concat                   cat_205                  3 1 1382 1390 1395 1398 0=0
Convolution              convrelu_206             1 1 1398 1399 0=32 1=3 -23310=1,2.000000e-01 11=3 12=1 13=1 14=1 2=1 3=1 4=1 5=1 6=36864 9=2
Split                    splitncnn_207            1 2 1399 1400 1401
Concat                   cat_206                  4 1 1383 1391 1396 1400 1402 0=0
Convolution              convrelu_207             1 1 1402 1403 0=32 1=3 -23310=1,2.000000e-01 11=3 12=1 13=1 14=1 2=1 3=1 4=1 5=1 6=46080 9=2
Concat                   cat_207                  5 1 1384 1392 1397 1401 1403 1404 0=0
Convolution              conv_261                 1 1 1404 1405 0=64 1=3 11=3 12=1 13=1 14=1 2=1 3=1 4=1 5=1 6=110592
BinaryOp                 mul_136                  1 1 1405 1406 0=2 1=1 2=2.000000e-01
BinaryOp                 add_137                  2 1 1406 1385 1407 0=0
Split                    splitncnn_208            1 6 1407 1408 1409 1410 1411 1412 1413
Convolution              convrelu_208             1 1 1413 1414 0=32 1=3 -23310=1,2.000000e-01 11=3 12=1 13=1 14=1 2=1 3=1 4=1 5=1 6=18432 9=2
Split                    splitncnn_209            1 4 1414 1415 1416 1417 1418
Concat                   cat_208                  2 1 1408 1415 1419 0=0
Convolution              convrelu_209             1 1 1419 1420 0=32 1=3 -23310=1,2.000000e-01 11=3 12=1 13=1 14=1 2=1 3=1 4=1 5=1 6=27648 9=2
Split                    splitncnn_210            1 3 1420 1421 1422 1423
Concat                   cat_209                  3 1 1409 1416 1421 1424 0=0
Convolution              convrelu_210             1 1 1424 1425 0=32 1=3 -23310=1,2.000000e-01 11=3 12=1 13=1 14=1 2=1 3=1 4=1 5=1 6=36864 9=2
Split                    splitncnn_211            1 2 1425 1426 1427
Concat                   cat_210                  4 1 1410 1417 1422 1426 1428 0=0
Convolution              convrelu_211             1 1 1428 1429 0=32 1=3 -23310=1,2.000000e-01 11=3 12=1 13=1 14=1 2=1 3=1 4=1 5=1 6=46080 9=2
Concat                   cat_211                  5 1 1411 1418 1423 1427 1429 1430 0=0
Convolution              conv_266                 1 1 1430 1431 0=64 1=3 11=3 12=1 13=1 14=1 2=1 3=1 4=1 5=1 6=110592
BinaryOp                 mul_138                  1 1 1431 1432 0=2 1=1 2=2.000000e-01
BinaryOp                 add_139                  2 1 1432 1412 1433 0=0
Split                    splitncnn_212            1 6 1433 1434 1435 1436 1437 1438 1439
Convolution              convrelu_212             1 1 1439 1440 0=32 1=3 -23310=1,2.000000e-01 11=3 12=1 13=1 14=1 2=1 3=1 4=1 5=1 6=18432 9=2
Split                    splitncnn_213            1 4 1440 1441 1442 1443 1444
Concat                   cat_212                  2 1 1434 1441 1445 0=0
Convolution              convrelu_213             1 1 1445 1446 0=32 1=3 -23310=1,2.000000e-01 11=3 12=1 13=1 14=1 2=1 3=1 4=1 5=1 6=27648 9=2
Split                    splitncnn_214            1 3 1446 1447 1448 1449
Concat                   cat_213                  3 1 1435 1442 1447 1450 0=0
Convolution              convrelu_214             1 1 1450 1451 0=32 1=3 -23310=1,2.000000e-01 11=3 12=1 13=1 14=1 2=1 3=1 4=1 5=1 6=36864 9=2
Split                    splitncnn_215            1 2 1451 1452 1453
Concat                   cat_214                  4 1 1436 1443 1448 1452 1454 0=0
Convolution              convrelu_215             1 1 1454 1455 0=32 1=3 -23310=1,2.000000e-01 11=3 12=1 13=1 14=1 2=1 3=1 4=1 5=1 6=46080 9=2
Concat                   cat_215                  5 1 1437 1444 1449 1453 1455 1456 0=0
Convolution              conv_271                 1 1 1456 1457 0=64 1=3 11=3 12=1 13=1 14=1 2=1 3=1 4=1 5=1 6=110592
BinaryOp                 mul_140                  1 1 1457 1458 0=2 1=1 2=2.000000e-01
BinaryOp                 add_141                  2 1 1458 1438 1459 0=0
BinaryOp                 mul_142                  1 1 1459 1460 0=2 1=1 2=2.000000e-01
BinaryOp                 add_143                  2 1 1460 1386 1461 0=0
Split                    splitncnn_216            1 7 1461 1462 1463 1464 1465 1466 1467 1468
Convolution              convrelu_216             1 1 1468 1469 0=32 1=3 -23310=1,2.000000e-01 11=3 12=1 13=1 14=1 2=1 3=1 4=1 5=1 6=18432 9=2
Split                    splitncnn_217            1 4 1469 1470 1471 1472 1473
Concat                   cat_216                  2 1 1462 1470 1474 0=0
Convolution              convrelu_217             1 1 1474 1475 0=32 1=3 -23310=1,2.000000e-01 11=3 12=1 13=1 14=1 2=1 3=1 4=1 5=1 6=27648 9=2
Split                    splitncnn_218            1 3 1475 1476 1477 1478
Concat                   cat_217                  3 1 1463 1471 1476 1479 0=0
Convolution              convrelu_218             1 1 1479 1480 0=32 1=3 -23310=1,2.000000e-01 11=3 12=1 13=1 14=1 2=1 3=1 4=1 5=1 6=36864 9=2
Split                    splitncnn_219            1 2 1480 1481 1482
Concat                   cat_218                  4 1 1464 1472 1477 1481 1483 0=0
Convolution              convrelu_219             1 1 1483 1484 0=32 1=3 -23310=1,2.000000e-01 11=3 12=1 13=1 14=1 2=1 3=1 4=1 5=1 6=46080 9=2
Concat                   cat_219                  5 1 1465 1473 1478 1482 1484 1485 0=0
Convolution              conv_276                 1 1 1485 1486 0=64 1=3 11=3 12=1 13=1 14=1 2=1 3=1 4=1 5=1 6=110592
BinaryOp                 mul_144                  1 1 1486 1487 0=2 1=1 2=2.000000e-01
BinaryOp                 add_145                  2 1 1487 1466 1488 0=0
Split                    splitncnn_220            1 6 1488 1489 1490 1491 1492 1493 1494
Convolution              convrelu_220             1 1 1494 1495 0=32 1=3 -23310=1,2.000000e-01 11=3 12=1 13=1 14=1 2=1 3=1 4=1 5=1 6=18432 9=2
Split                    splitncnn_221            1 4 1495 1496 1497 1498 1499
Concat                   cat_220                  2 1 1489 1496 1500 0=0
Convolution              convrelu_221             1 1 1500 1501 0=32 1=3 -23310=1,2.000000e-01 11=3 12=1 13=1 14=1 2=1 3=1 4=1 5=1 6=27648 9=2
Split                    splitncnn_222            1 3 1501 1502 1503 1504
Concat                   cat_221                  3 1 1490 1497 1502 1505 0=0
Convolution              convrelu_222             1 1 1505 1506 0=32 1=3 -23310=1,2.000000e-01 11=3 12=1 13=1 14=1 2=1 3=1 4=1 5=1 6=36864 9=2
Split                    splitncnn_223            1 2 1506 1507 1508
Concat                   cat_222                  4 1 1491 1498 1503 1507 1509 0=0
Convolution              convrelu_223             1 1 1509 1510 0=32 1=3 -23310=1,2.000000e-01 11=3 12=1 13=1 14=1 2=1 3=1 4=1 5=1 6=46080 9=2
Concat                   cat_223                  5 1 1492 1499 1504 1508 1510 1511 0=0
Convolution              conv_281                 1 1 1511 1512 0=64 1=3 11=3 12=1 13=1 14=1 2=1 3=1 4=1 5=1 6=110592
BinaryOp                 mul_146                  1 1 1512 1513 0=2 1=1 2=2.000000e-01
BinaryOp                 add_147                  2 1 1513 1493 1514 0=0
Split                    splitncnn_224            1 6 1514 1515 1516 1517 1518 1519 1520
Convolution              convrelu_224             1 1 1520 1521 0=32 1=3 -23310=1,2.000000e-01 11=3 12=1 13=1 14=1 2=1 3=1 4=1 5=1 6=18432 9=2
Split                    splitncnn_225            1 4 1521 1522 1523 1524 1525
Concat                   cat_224                  2 1 1515 1522 1526 0=0
Convolution              convrelu_225             1 1 1526 1527 0=32 1=3 -23310=1,2.000000e-01 11=3 12=1 13=1 14=1 2=1 3=1 4=1 5=1 6=27648 9=2
Split                    splitncnn_226            1 3 1527 1528 1529 1530
Concat                   cat_225                  3 1 1516 1523 1528 1531 0=0
Convolution              convrelu_226             1 1 1531 1532 0=32 1=3 -23310=1,2.000000e-01 11=3 12=1 13=1 14=1 2=1 3=1 4=1 5=1 6=36864 9=2
Split                    splitncnn_227            1 2 1532 1533 1534
Concat                   cat_226                  4 1 1517 1524 1529 1533 1535 0=0
Convolution              convrelu_227             1 1 1535 1536 0=32 1=3 -23310=1,2.000000e-01 11=3 12=1 13=1 14=1 2=1 3=1 4=1 5=1 6=46080 9=2
Concat                   cat_227                  5 1 1518 1525 1530 1534 1536 1537 0=0
Convolution              conv_286                 1 1 1537 1538 0=64 1=3 11=3 12=1 13=1 14=1 2=1 3=1 4=1 5=1 6=110592
BinaryOp                 mul_148                  1 1 1538 1539 0=2 1=1 2=2.000000e-01
BinaryOp                 add_149                  2 1 1539 1519 1540 0=0
BinaryOp                 mul_150                  1 1 1540 1541 0=2 1=1 2=2.000000e-01
BinaryOp                 add_151                  2 1 1541 1467 1542 0=0
Split                    splitncnn_228            1 7 1542 1543 1544 1545 1546 1547 1548 1549
Convolution              convrelu_228             1 1 1549 1550 0=32 1=3 -23310=1,2.000000e-01 11=3 12=1 13=1 14=1 2=1 3=1 4=1 5=1 6=18432 9=2
Split                    splitncnn_229            1 4 1550 1551 1552 1553 1554
Concat                   cat_228                  2 1 1543 1551 1555 0=0
Convolution              convrelu_229             1 1 1555 1556 0=32 1=3 -23310=1,2.000000e-01 11=3 12=1 13=1 14=1 2=1 3=1 4=1 5=1 6=27648 9=2
Split                    splitncnn_230            1 3 1556 1557 1558 1559
Concat                   cat_229                  3 1 1544 1552 1557 1560 0=0
Convolution              convrelu_230             1 1 1560 1561 0=32 1=3 -23310=1,2.000000e-01 11=3 12=1 13=1 14=1 2=1 3=1 4=1 5=1 6=36864 9=2
Split                    splitncnn_231            1 2 1561 1562 1563
Concat                   cat_230                  4 1 1545 1553 1558 1562 1564 0=0
Convolution              convrelu_231             1 1 1564 1565 0=32 1=3 -23310=1,2.000000e-01 11=3 12=1 13=1 14=1 2=1 3=1 4=1 5=1 6=46080 9=2
Concat                   cat_231                  5 1 1546 1554 1559 1563 1565 1566 0=0
Convolution              conv_291                 1 1 1566 1567 0=64 1=3 11=3 12=1 13=1 14=1 2=1 3=1 4=1 5=1 6=110592
BinaryOp                 mul_152                  1 1 1567 1568 0=2 1=1 2=2.000000e-01
BinaryOp                 add_153                  2 1 1568 1547 1569 0=0
Split                    splitncnn_232            1 6 1569 1570 1571 1572 1573 1574 1575
Convolution              convrelu_232             1 1 1575 1576 0=32 1=3 -23310=1,2.000000e-01 11=3 12=1 13=1 14=1 2=1 3=1 4=1 5=1 6=18432 9=2
Split                    splitncnn_233            1 4 1576 1577 1578 1579 1580
Concat                   cat_232                  2 1 1570 1577 1581 0=0
Convolution              convrelu_233             1 1 1581 1582 0=32 1=3 -23310=1,2.000000e-01 11=3 12=1 13=1 14=1 2=1 3=1 4=1 5=1 6=27648 9=2
Split                    splitncnn_234            1 3 1582 1583 1584 1585
Concat                   cat_233                  3 1 1571 1578 1583 1586 0=0
Convolution              convrelu_234             1 1 1586 1587 0=32 1=3 -23310=1,2.000000e-01 11=3 12=1 13=1 14=1 2=1 3=1 4=1 5=1 6=36864 9=2
Split                    splitncnn_235            1 2 1587 1588 1589
Concat                   cat_234                  4 1 1572 1579 1584 1588 1590 0=0
Convolution              convrelu_235             1 1 1590 1591 0=32 1=3 -23310=1,2.000000e-01 11=3 12=1 13=1 14=1 2=1 3=1 4=1 5=1 6=46080 9=2
Concat                   cat_235                  5 1 1573 1580 1585 1589 1591 1592 0=0
Convolution              conv_296                 1 1 1592 1593 0=64 1=3 11=3 12=1 13=1 14=1 2=1 3=1 4=1 5=1 6=110592
BinaryOp                 mul_154                  1 1 1593 1594 0=2 1=1 2=2.000000e-01
BinaryOp                 add_155                  2 1 1594 1574 1595 0=0
Split                    splitncnn_236            1 6 1595 1596 1597 1598 1599 1600 1601
Convolution              convrelu_236             1 1 1601 1602 0=32 1=3 -23310=1,2.000000e-01 11=3 12=1 13=1 14=1 2=1 3=1 4=1 5=1 6=18432 9=2
Split                    splitncnn_237            1 4 1602 1603 1604 1605 1606
Concat                   cat_236                  2 1 1596 1603 1607 0=0
Convolution              convrelu_237             1 1 1607 1608 0=32 1=3 -23310=1,2.000000e-01 11=3 12=1 13=1 14=1 2=1 3=1 4=1 5=1 6=27648 9=2
Split                    splitncnn_238            1 3 1608 1609 1610 1611
Concat                   cat_237                  3 1 1597 1604 1609 1612 0=0
Convolution              convrelu_238             1 1 1612 1613 0=32 1=3 -23310=1,2.000000e-01 11=3 12=1 13=1 14=1 2=1 3=1 4=1 5=1 6=36864 9=2
Split                    splitncnn_239            1 2 1613 1614 1615
Concat                   cat_238                  4 1 1598 1605 1610 1614 1616 0=0
Convolution              convrelu_239             1 1 1616 1617 0=32 1=3 -23310=1,2.000000e-01 11=3 12=1 13=1 14=1 2=1 3=1 4=1 5=1 6=46080 9=2
Concat                   cat_239                  5 1 1599 1606 1611 1615 1617 1618 0=0
Convolution              conv_301                 1 1 1618 1619 0=64 1=3 11=3 12=1 13=1 14=1 2=1 3=1 4=1 5=1 6=110592
BinaryOp                 mul_156                  1 1 1619 1620 0=2 1=1 2=2.000000e-01
BinaryOp                 add_157                  2 1 1620 1600 1621 0=0
BinaryOp                 mul_158                  1 1 1621 1622 0=2 1=1 2=2.000000e-01
BinaryOp                 add_159                  2 1 1622 1548 1623 0=0
Split                    splitncnn_240            1 7 1623 1624 1625 1626 1627 1628 1629 1630
Convolution              convrelu_240             1 1 1630 1631 0=32 1=3 -23310=1,2.000000e-01 11=3 12=1 13=1 14=1 2=1 3=1 4=1 5=1 6=18432 9=2
Split                    splitncnn_241            1 4 1631 1632 1633 1634 1635
Concat                   cat_240                  2 1 1624 1632 1636 0=0
Convolution              convrelu_241             1 1 1636 1637 0=32 1=3 -23310=1,2.000000e-01 11=3 12=1 13=1 14=1 2=1 3=1 4=1 5=1 6=27648 9=2
Split                    splitncnn_242            1 3 1637 1638 1639 1640
Concat                   cat_241                  3 1 1625 1633 1638 1641 0=0
Convolution              convrelu_242             1 1 1641 1642 0=32 1=3 -23310=1,2.000000e-01 11=3 12=1 13=1 14=1 2=1 3=1 4=1 5=1 6=36864 9=2
Split                    splitncnn_243            1 2 1642 1643 1644
Concat                   cat_242                  4 1 1626 1634 1639 1643 1645 0=0
Convolution              convrelu_243             1 1 1645 1646 0=32 1=3 -23310=1,2.000000e-01 11=3 12=1 13=1 14=1 2=1 3=1 4=1 5=1 6=46080 9=2
Concat                   cat_243                  5 1 1627 1635 1640 1644 1646 1647 0=0
Convolution              conv_306                 1 1 1647 1648 0=64 1=3 11=3 12=1 13=1 14=1 2=1 3=1 4=1 5=1 6=110592
BinaryOp                 mul_160                  1 1 1648 1649 0=2 1=1 2=2.000000e-01
BinaryOp                 add_161                  2 1 1649 1628 1650 0=0
Split                    splitncnn_244            1 6 1650 1651 1652 1653 1654 1655 1656
Convolution              convrelu_244             1 1 1656 1657 0=32 1=3 -23310=1,2.000000e-01 11=3 12=1 13=1 14=1 2=1 3=1 4=1 5=1 6=18432 9=2
Split                    splitncnn_245            1 4 1657 1658 1659 1660 1661
Concat                   cat_244                  2 1 1651 1658 1662 0=0
Convolution              convrelu_245             1 1 1662 1663 0=32 1=3 -23310=1,2.000000e-01 11=3 12=1 13=1 14=1 2=1 3=1 4=1 5=1 6=27648 9=2
Split                    splitncnn_246            1 3 1663 1664 1665 1666
Concat                   cat_245                  3 1 1652 1659 1664 1667 0=0
Convolution              convrelu_246             1 1 1667 1668 0=32 1=3 -23310=1,2.000000e-01 11=3 12=1 13=1 14=1 2=1 3=1 4=1 5=1 6=36864 9=2
Split                    splitncnn_247            1 2 1668 1669 1670
Concat                   cat_246                  4 1 1653 1660 1665 1669 1671 0=0
Convolution              convrelu_247             1 1 1671 1672 0=32 1=3 -23310=1,2.000000e-01 11=3 12=1 13=1 14=1 2=1 3=1 4=1 5=1 6=46080 9=2
Concat                   cat_247                  5 1 1654 1661 1666 1670 1672 1673 0=0
Convolution              conv_311                 1 1 1673 1674 0=64 1=3 11=3 12=1 13=1 14=1 2=1 3=1 4=1 5=1 6=110592
BinaryOp                 mul_162                  1 1 1674 1675 0=2 1=1 2=2.000000e-01
BinaryOp                 add_163                  2 1 1675 1655 1676 0=0
Split                    splitncnn_248            1 6 1676 1677 1678 1679 1680 1681 1682
Convolution              convrelu_248             1 1 1682 1683 0=32 1=3 -23310=1,2.000000e-01 11=3 12=1 13=1 14=1 2=1 3=1 4=1 5=1 6=18432 9=2
Split                    splitncnn_249            1 4 1683 1684 1685 1686 1687
Concat                   cat_248                  2 1 1677 1684 1688 0=0
Convolution              convrelu_249             1 1 1688 1689 0=32 1=3 -23310=1,2.000000e-01 11=3 12=1 13=1 14=1 2=1 3=1 4=1 5=1 6=27648 9=2
Split                    splitncnn_250            1 3 1689 1690 1691 1692
Concat                   cat_249                  3 1 1678 1685 1690 1693 0=0
Convolution              convrelu_250             1 1 1693 1694 0=32 1=3 -23310=1,2.000000e-01 11=3 12=1 13=1 14=1 2=1 3=1 4=1 5=1 6=36864 9=2
Split                    splitncnn_251            1 2 1694 1695 1696
Concat                   cat_250                  4 1 1679 1686 1691 1695 1697 0=0
Convolution              convrelu_251             1 1 1697 1698 0=32 1=3 -23310=1,2.000000e-01 11=3 12=1 13=1 14=1 2=1 3=1 4=1 5=1 6=46080 9=2
Concat                   cat_251                  5 1 1680 1687 1692 1696 1698 1699 0=0
Convolution              conv_316                 1 1 1699 1700 0=64 1=3 11=3 12=1 13=1 14=1 2=1 3=1 4=1 5=1 6=110592
BinaryOp                 mul_164                  1 1 1700 1701 0=2 1=1 2=2.000000e-01
BinaryOp                 add_165                  2 1 1701 1681 1702 0=0
BinaryOp                 mul_166                  1 1 1702 1703 0=2 1=1 2=2.000000e-01
BinaryOp                 add_167                  2 1 1703 1629 1704 0=0
Split                    splitncnn_252            1 7 1704 1705 1706 1707 1708 1709 1710 1711
Convolution              convrelu_252             1 1 1711 1712 0=32 1=3 -23310=1,2.000000e-01 11=3 12=1 13=1 14=1 2=1 3=1 4=1 5=1 6=18432 9=2
Split                    splitncnn_253            1 4 1712 1713 1714 1715 1716
Concat                   cat_252                  2 1 1705 1713 1717 0=0
Convolution              convrelu_253             1 1 1717 1718 0=32 1=3 -23310=1,2.000000e-01 11=3 12=1 13=1 14=1 2=1 3=1 4=1 5=1 6=27648 9=2
Split                    splitncnn_254            1 3 1718 1719 1720 1721
Concat                   cat_253                  3 1 1706 1714 1719 1722 0=0
Convolution              convrelu_254             1 1 1722 1723 0=32 1=3 -23310=1,2.000000e-01 11=3 12=1 13=1 14=1 2=1 3=1 4=1 5=1 6=36864 9=2
Split                    splitncnn_255            1 2 1723 1724 1725
Concat                   cat_254                  4 1 1707 1715 1720 1724 1726 0=0
Convolution              convrelu_255             1 1 1726 1727 0=32 1=3 -23310=1,2.000000e-01 11=3 12=1 13=1 14=1 2=1 3=1 4=1 5=1 6=46080 9=2
Concat                   cat_255                  5 1 1708 1716 1721 1725 1727 1728 0=0
Convolution              conv_321                 1 1 1728 1729 0=64 1=3 11=3 12=1 13=1 14=1 2=1 3=1 4=1 5=1 6=110592
BinaryOp                 mul_168                  1 1 1729 1730 0=2 1=1 2=2.000000e-01
BinaryOp                 add_169                  2 1 1730 1709 1731 0=0
Split                    splitncnn_256            1 6 1731 1732 1733 1734 1735 1736 1737
Convolution              convrelu_256             1 1 1737 1738 0=32 1=3 -23310=1,2.000000e-01 11=3 12=1 13=1 14=1 2=1 3=1 4=1 5=1 6=18432 9=2
Split                    splitncnn_257            1 4 1738 1739 1740 1741 1742
Concat                   cat_256                  2 1 1732 1739 1743 0=0
Convolution              convrelu_257             1 1 1743 1744 0=32 1=3 -23310=1,2.000000e-01 11=3 12=1 13=1 14=1 2=1 3=1 4=1 5=1 6=27648 9=2
Split                    splitncnn_258            1 3 1744 1745 1746 1747
Concat                   cat_257                  3 1 1733 1740 1745 1748 0=0
Convolution              convrelu_258             1 1 1748 1749 0=32 1=3 -23310=1,2.000000e-01 11=3 12=1 13=1 14=1 2=1 3=1 4=1 5=1 6=36864 9=2
Split                    splitncnn_259            1 2 1749 1750 1751
Concat                   cat_258                  4 1 1734 1741 1746 1750 1752 0=0
Convolution              convrelu_259             1 1 1752 1753 0=32 1=3 -23310=1,2.000000e-01 11=3 12=1 13=1 14=1 2=1 3=1 4=1 5=1 6=46080 9=2
Concat                   cat_259                  5 1 1735 1742 1747 1751 1753 1754 0=0
Convolution              conv_326                 1 1 1754 1755 0=64 1=3 11=3 12=1 13=1 14=1 2=1 3=1 4=1 5=1 6=110592
BinaryOp                 mul_170                  1 1 1755 1756 0=2 1=1 2=2.000000e-01
BinaryOp                 add_171                  2 1 1756 1736 1757 0=0
Split                    splitncnn_260            1 6 1757 1758 1759 1760 1761 1762 1763
Convolution              convrelu_260             1 1 1763 1764 0=32 1=3 -23310=1,2.000000e-01 11=3 12=1 13=1 14=1 2=1 3=1 4=1 5=1 6=18432 9=2
Split                    splitncnn_261            1 4 1764 1765 1766 1767 1768
Concat                   cat_260                  2 1 1758 1765 1769 0=0
Convolution              convrelu_261             1 1 1769 1770 0=32 1=3 -23310=1,2.000000e-01 11=3 12=1 13=1 14=1 2=1 3=1 4=1 5=1 6=27648 9=2
Split                    splitncnn_262            1 3 1770 1771 1772 1773
Concat                   cat_261                  3 1 1759 1766 1771 1774 0=0
Convolution              convrelu_262             1 1 1774 1775 0=32 1=3 -23310=1,2.000000e-01 11=3 12=1 13=1 14=1 2=1 3=1 4=1 5=1 6=36864 9=2
Split                    splitncnn_263            1 2 1775 1776 1777
Concat                   cat_262                  4 1 1760 1767 1772 1776 1778 0=0
Convolution              convrelu_263             1 1 1778 1779 0=32 1=3 -23310=1,2.000000e-01 11=3 12=1 13=1 14=1 2=1 3=1 4=1 5=1 6=46080 9=2
Concat                   cat_263                  5 1 1761 1768 1773 1777 1779 1780 0=0
Convolution              conv_331                 1 1 1780 1781 0=64 1=3 11=3 12=1 13=1 14=1 2=1 3=1 4=1 5=1 6=110592
BinaryOp                 mul_172                  1 1 1781 1782 0=2 1=1 2=2.000000e-01
BinaryOp                 add_173                  2 1 1782 1762 1783 0=0
BinaryOp                 mul_174                  1 1 1783 1784 0=2 1=1 2=2.000000e-01
BinaryOp                 add_175                  2 1 1784 1710 1785 0=0
Split                    splitncnn_264            1 7 1785 1786 1787 1788 1789 1790 1791 1792
Convolution              convrelu_264             1 1 1792 1793 0=32 1=3 -23310=1,2.000000e-01 11=3 12=1 13=1 14=1 2=1 3=1 4=1 5=1 6=18432 9=2
Split                    splitncnn_265            1 4 1793 1794 1795 1796 1797
Concat                   cat_264                  2 1 1786 1794 1798 0=0
Convolution              convrelu_265             1 1 1798 1799 0=32 1=3 -23310=1,2.000000e-01 11=3 12=1 13=1 14=1 2=1 3=1 4=1 5=1 6=27648 9=2
Split                    splitncnn_266            1 3 1799 1800 1801 1802
Concat                   cat_265                  3 1 1787 1795 1800 1803 0=0
Convolution              convrelu_266             1 1 1803 1804 0=32 1=3 -23310=1,2.000000e-01 11=3 12=1 13=1 14=1 2=1 3=1 4=1 5=1 6=36864 9=2
Split                    splitncnn_267            1 2 1804 1805 1806
Concat                   cat_266                  4 1 1788 1796 1801 1805 1807 0=0
Convolution              convrelu_267             1 1 1807 1808 0=32 1=3 -23310=1,2.000000e-01 11=3 12=1 13=1 14=1 2=1 3=1 4=1 5=1 6=46080 9=2
Concat                   cat_267                  5 1 1789 1797 1802 1806 1808 1809 0=0
Convolution              conv_336                 1 1 1809 1810 0=64 1=3 11=3 12=1 13=1 14=1 2=1 3=1 4=1 5=1 6=110592
BinaryOp                 mul_176                  1 1 1810 1811 0=2 1=1 2=2.000000e-01
BinaryOp                 add_177                  2 1 1811 1790 1812 0=0
Split                    splitncnn_268            1 6 1812 1813 1814 1815 1816 1817 1818
Convolution              convrelu_268             1 1 1818 1819 0=32 1=3 -23310=1,2.000000e-01 11=3 12=1 13=1 14=1 2=1 3=1 4=1 5=1 6=18432 9=2
Split                    splitncnn_269            1 4 1819 1820 1821 1822 1823
Concat                   cat_268                  2 1 1813 1820 1824 0=0
Convolution              convrelu_269             1 1 1824 1825 0=32 1=3 -23310=1,2.000000e-01 11=3 12=1 13=1 14=1 2=1 3=1 4=1 5=1 6=27648 9=2
Split                    splitncnn_270            1 3 1825 1826 1827 1828
Concat                   cat_269                  3 1 1814 1821 1826 1829 0=0
Convolution              convrelu_270             1 1 1829 1830 0=32 1=3 -23310=1,2.000000e-01 11=3 12=1 13=1 14=1 2=1 3=1 4=1 5=1 6=36864 9=2
Split                    splitncnn_271            1 2 1830 1831 1832
Concat                   cat_270                  4 1 1815 1822 1827 1831 1833 0=0
Convolution              convrelu_271             1 1 1833 1834 0=32 1=3 -23310=1,2.000000e-01 11=3 12=1 13=1 14=1 2=1 3=1 4=1 5=1 6=46080 9=2
Concat                   cat_271                  5 1 1816 1823 1828 1832 1834 1835 0=0
Convolution              conv_341                 1 1 1835 1836 0=64 1=3 11=3 12=1 13=1 14=1 2=1 3=1 4=1 5=1 6=110592
BinaryOp                 mul_178                  1 1 1836 1837 0=2 1=1 2=2.000000e-01
BinaryOp                 add_179                  2 1 1837 1817 1838 0=0
Split                    splitncnn_272            1 6 1838 1839 1840 1841 1842 1843 1844
Convolution              convrelu_272             1 1 1844 1845 0=32 1=3 -23310=1,2.000000e-01 11=3 12=1 13=1 14=1 2=1 3=1 4=1 5=1 6=18432 9=2
Split                    splitncnn_273            1 4 1845 1846 1847 1848 1849
Concat                   cat_272                  2 1 1839 1846 1850 0=0
Convolution              convrelu_273             1 1 1850 1851 0=32 1=3 -23310=1,2.000000e-01 11=3 12=1 13=1 14=1 2=1 3=1 4=1 5=1 6=27648 9=2
Split                    splitncnn_274            1 3 1851 1852 1853 1854
Concat                   cat_273                  3 1 1840 1847 1852 1855 0=0
Convolution              convrelu_274             1 1 1855 1856 0=32 1=3 -23310=1,2.000000e-01 11=3 12=1 13=1 14=1 2=1 3=1 4=1 5=1 6=36864 9=2
Split                    splitncnn_275            1 2 1856 1857 1858
Concat                   cat_274                  4 1 1841 1848 1853 1857 1859 0=0
Convolution              convrelu_275             1 1 1859 1860 0=32 1=3 -23310=1,2.000000e-01 11=3 12=1 13=1 14=1 2=1 3=1 4=1 5=1 6=46080 9=2
Concat                   cat_275                  5 1 1842 1849 1854 1858 1860 1861 0=0
Convolution              conv_346                 1 1 1861 1862 0=64 1=3 11=3 12=1 13=1 14=1 2=1 3=1 4=1 5=1 6=110592
BinaryOp                 mul_180                  1 1 1862 1863 0=2 1=1 2=2.000000e-01
BinaryOp                 add_181                  2 1 1863 1843 1864 0=0
BinaryOp                 mul_182                  1 1 1864 1865 0=2 1=1 2=2.000000e-01
BinaryOp                 add_183                  2 1 1865 1791 1866 0=0
Convolution              conv_347                 1 1 1866 1867 0=64 1=3 11=3 12=1 13=1 14=1 2=1 3=1 4=1 5=1 6=36864
BinaryOp                 add_184                  2 1 9 1867 1868 0=0
Interp                   upsample_631             1 1 1868 1869 0=1 1=2.000000e+00 2=2.000000e+00 6=0
Convolution              convrelu_276             1 1 1869 1870 0=64 1=3 -23310=1,2.000000e-01 11=3 12=1 13=1 14=1 2=1 3=1 4=1 5=1 6=36864 9=2
Interp                   upsample_632             1 1 1870 1871 0=1 1=2.000000e+00 2=2.000000e+00 6=0
Convolution              convrelu_277             1 1 1871 1872 0=64 1=3 -23310=1,2.000000e-01 11=3 12=1 13=1 14=1 2=1 3=1 4=1 5=1 6=36864 9=2
Convolution              convrelu_278             1 1 1872 1873 0=64 1=3 -23310=1,2.000000e-01 11=3 12=1 13=1 14=1 2=1 3=1 4=1 5=1 6=36864 9=2
Convolution              conv_351                 1 1 1873 output 0=3 1=3 11=3 12=1 13=1 14=1 2=1 3=1 4=1 5=1 6=1728
